models/retrieval/saved/two_tower_model.pt (torch, 945843 bytes, 28 tensors)

user_tower.network.0.weight f4 [256, 256]
00000000: c3b8 0fbd 58c8 fbbc d3a4 1abc 08f7 003d
00000010: cee6 d7bc 79ff 533d 41a2 2fbd 4d69 1cbd
00000020: 6eaf 31bd 1f7f 7fbc fee3 ea3c 64d1 353d
00000030: 03d7 4dbd f6e5 18bc 5b8b 5ebd dd56 e9bc
00000040: 821d 973c e00b 0e3d 11b7 dcbc 4663 14bd
00000050: 73e4 993c 7424 76bd ca26 d93c e0c0 2fbd
00000060: c6a1 d33c e879 cdbc e6b0 0a3d 56cb 21bd
00000070: 8fdb 8f3c deae 6abd 2508 5d3d 06ee 01bd
00000080: 645c 233d 8373 953c 6645 003d 8356 473d
00000090: 4762 c7bc ebfa 043d 9f68 453d 4f0c 3b3d
000000a0: 6897 e23c 6a71 acbc b3e9 52bd 7e39 43bd
000000b0: a2ef 713c 2785 eabc 15ef 8bba bae4 523d
000000c0: b773 09bd a141 0c3d e927 623d f386 373d
000000d0: 8067 bd3c fe5a 4cbc 434e 29bd 04fd babc
000000e0: fc08 5cbd edc3 a23b 4458 453d 1a90 4abd
000000f0: cb3a 033d 0072 71bb f03c 3d3c bd03 8abd
00000100: dc90 1fbc 8b91 abbc cbaf 6bbd efd0 50bc
00000110: fefe 1fbd e374 3cbc 2cb2 543d 4fb1 7b3d
00000120: 1bda 693d ff40 a2bc 7fe1 3cbc 2eb1 42bd
00000130: 4d2c 34bc 68e3 b1bc 7ae2 45bd 77fa 6a3d
00000140: 893c 7abd 2db0 bfbc 07b8 423d 0b1c 7c3d
00000150: 82bf 0fbb ba25 2ebb cecd 37bc 6f88 ae3c
00000160: 35fb f5bc 5284 423c fdeb 10bd cc82 5abd
00000170: aa4b 073d 7151 51bd c706 bfbb b75a 97bc
00000180: 9539 debc 1c59 503d 0f26 2f3d 9ab6 4fbd
00000190: 10e2 88bc 2df6 91ba 63cf 3bba 3ad9 1b3c
000001a0: 3d83 563d 7bf1 6d3d 7bd2 60bd 5825 83bc
000001b0: feab 1bbc 6a96 34bd a4d8 e43c a684 703c
000001c0: 1fe2 debc c208 79bd 5f55 8dbc dd88 62bd
000001d0: ebf8 afbc 6fc0 013c 2191 5dbb 9242 853c
000001e0: 7f2f 823c 42f3 5439 f140 d73c 0ad9 74bc
000001f0: 6174 d93b 2475 8b3d 63cb e23c 3f56 523c
00000200: b606 483d 58fb 173d a4a6 6a3c 433b 37bd
00000210: 4ce6 153d ee76 38bd 6bb9 5c3b 6ff2 433d
00000220: b50a 13bd 8e27 57bc 1572 0ebd c31e 2e3c
00000230: e5ef 0b3d aa54 0f3d 361a 94bc dd57 9c3c
00000240: 39bb ebbc b000 36bd 2857 953b d3bc 50bd
00000250: 952e 053d 4049 233d 7314 0b3c 3016 6a3c
00000260: 730f 2dbc 0629 6abd 94b0 e33c ce4a 533d
00000270: fe3b 123c 8980 523d bd6b 5ebd c2e2 06bd
00000280: 1b5a 023d 6087 82bd 2730 723c 8307 5c3d
00000290: 597c 5a3d 13d2 1dbd 484f 78bd e4a7 1a3d
000002a0: 7478 70bc 1409 463d 13dd 3cbd 6695 b23c
000002b0: 50d2 9dbc b95c f53c 1ed7 783b 709a 36bd
000002c0: 31a8 64bd 7130 7f3d 36bf 41bd 2641 23bd
000002d0: f765 163d 3db5 63bd d2fa 45bb 4068 403d
000002e0: 3b94 33bd 4b45 3fbd 9bb0 853b e687 743d
000002f0: c33c 4dbc 8c44 18bd 3c01 14bc 773c 20bd
00000300: 41b2 72bd 2b5e 97bc 4411 7cb8 0a5c 553c
00000310: e570 68bd 45c5 6b3d 67ca 623d 85b6 933c
00000320: a511 1ebd d36a b4bc 840d 423c b137 f1bb
00000330: 7b2e 6a3d a756 aabc 3121 56bd 194a bd3c
00000340: ad29 0d3d eb32 3b3d 252a 6fbd eaf2 9fbc
00000350: 3756 343b 51b6 f03c 19a5 c2bb 8eb1 07bb
00000360: 33e5 2abd 32ba 813c b2cb f93c b13a 9abc
00000370: 4a1c 57bd 005e 803d e1f7 3dbd 1137 57bd
00000380: 08dc 66bd d4e7 35bd 3d93 513d 7a94 1dbb
00000390: 6079 9dbc 1014 403c 1997 daba 6d43 26bd
000003a0: 279b 493d a5cb 9dbc 805e 783d 446f e03c
000003b0: 7433 ebbc 05e1 14bd 0174 273d 18a0 88bc
000003c0: 894f ac3c ccfd 0abd 1f87 38bb c4d5 f53c
000003d0: 30e0 1b3d b6cb 30bd c6f4 173d 985c 133d
000003e0: 0ec5 6abd 5139 1f3c 2631 f2bc c9e3 a33c
000003f0: 3b2b 63bd 19db b23c feb3 093d 4a64 003d
-0.035088312 -0.03073518 -0.009438711 0.031485587 -0.026355173 0.05175731 -0.042879347 -0.03818636
-0.043380193 -0.015594273 0.028673168 0.044389144 -0.05025388 -0.009332171 -0.05433212 -0.028483802
0.018446688 0.034679294 -0.026942762 -0.036227487 0.01878569 -0.06009336 0.026507754 -0.04290855
0.025833976 -0.025082543 0.03386011 -0.039500557 0.017560748 -0.057295673 0.053962845 -0.031721137
0.039883032 0.018243557 0.031316184 0.04866649 -0.024338854 0.032465857 0.048195478 0.045666035
0.027660087 -0.021050174 -0.051492404 -0.04766225 0.014766606 -0.028627945 -0.001067611 0.051487662
-0.03355762 0.034242276 0.055213843 0.044806432 0.023120642 -0.012472866 -0.0413344 -0.022825725
-0.053719506 0.004967204 0.04817988 -0.049453832 0.03203849 -0.003684163 0.011550173 -0.06738994
-0.009739127 -0.020943424 -0.057540696 -0.012745126 -0.03906154 -0.011502477 0.05192773 0.06144839
0.057092767 -0.019806383 -0.011528372 -0.047532253 -0.01099689 -0.021714881 -0.048311688 0.05736777
-0.061092887 -0.023399437 0.047538783 0.06155018 -0.0021934216 -0.002657278 -0.011218501 0.021305291
-0.030027011 0.011872368 -0.035381306 -0.053347394 0.033031143 -0.05110306 -0.0058296653 -0.018475873
-0.027127067 0.05086623 0.042760905 -0.05071125 -0.016709358 -0.0011135988 -0.0007164387 0.00951224
0.052371252 0.05809162 -0.05488823 -0.016009018 -0.009501455 -0.04408876 0.027935334 0.014680063
-0.027207432 -0.060799368 -0.017252622 -0.055306304 -0.021480998 0.007919415 -0.0033808427 0.016267095
0.015891789 0.00020308516 0.026276084 -0.014944324 0.006636188 0.06809452 0.027684873 0.0128379455
0.048834525 0.037104934 0.014321957 -0.04473425 0.03659658 -0.045035295 0.0033679854 0.047838625
-0.035898883 -0.013131989 -0.034776766 0.010627451 0.034164328 0.03499285 -0.018078905 0.019084865
-0.028775798 -0.04443425 0.004557509 -0.050961327 0.032515127 0.03986478 0.008488762 0.0142875165
-0.010562765 -0.05716803 0.02779416 0.05158501 0.008925436 0.051392112 -0.054301966 -0.032931097
0.031824213 -0.06373477 0.014781988 0.0537181 0.053341243 -0.03853042 -0.060622483 0.03775777
-0.014677156 0.0483485 -0.04610927 0.021799754 -0.019265324 0.02995144 0.0037970017 -0.044580877
-0.055824462 0.062302057 -0.047301494 -0.039857052 0.036718335 -0.055592764 -0.0030209315 0.04697442
-0.043842535 -0.046696942 0.004079891 0.059699915 -0.012526694 -0.037174746 -0.009033497 -0.039120164
-0.059252027 -0.01847752 -6.009756e-05 0.013022432 -0.05674829 0.057561178 0.055368807 0.018031368
-0.038591046 -0.022023594 0.011844043 -0.0073613753 0.057173233 -0.020793272 -0.052277748 0.023106622
0.034463573 0.045702856 -0.0583898 -0.01952501 0.0027517208 0.02938381 -0.0059400913 -0.0020705196
-0.041722488 0.015835855 0.030492637 -0.018826814 -0.052517213 0.06267929 -0.046378974 -0.05254275
-0.056362182 -0.04441054 0.051165808 -0.0024044798 -0.019222915 0.011723533 -0.0016677111 -0.040591646
0.04922023 -0.019262144 0.060636997 0.027396806 -0.028711058 -0.036347408 0.040882114 -0.016677901
0.021034019 -0.033933446 -0.002815671 0.030009158 0.0380556 -0.043163024 0.03709867 0.035976976
-0.057316832 0.009718255 -0.029564451 0.020006077 -0.05546115 0.02183299 0.03361892 0.031345643

user_tower.network.0.bias f4 [256]
00000000: 841c c63c 1ada 3dbd d225 59bd 492e 11bd
00000010: cdcc 4fbd 5f78 383d a0e0 593d d224 68bd
00000020: cd0b dc3c 8fc9 283d 382d 0a3d 7cb7 3f3c
00000030: 454d 123d ba5d dc3c 39d0 6ebc 3c10 2c3d
00000040: a7a9 183d 0e4c 5c3d be4b 47bd fc71 6cbd
00000050: df17 af3c 2f51 6fbd 8abc 5dbd ed2f 4abd
00000060: d294 413d c6dd d8bc 9594 9bbb 45f9 20bc
00000070: 6c10 633d 9315 503d ae16 973c 3c0d 31bd
00000080: cebb 263c 9d28 97bb 41a9 5e3c 2e13 793d
00000090: 33cc 093d cb14 15bc e4ec 24bd 6f69 143d
000000a0: ff37 da3c feb6 043d 3cfe 153d 048f 173d
000000b0: 0eef 6dbd 0f94 8e3c 7672 d43b c6b6 75bc
000000c0: 5dc4 40bd 8766 583d 6ab8 14bc 57c7 8cbd
000000d0: 43bb 2f3d 9e5b adbc aac6 963c 50bf 253d
000000e0: 7dcc 283d 4d5f 67bd f092 963b a37c 7e3d
000000f0: 4d4f 9ebb 98a8 723b c447 17bd 7376 483c
00000100: 157f efbc fb9e b8bb 6c1f a5bc b443 0b3c
00000110: a5ae 67bd 151a 2abd a412 56bd 4a98 813c
00000120: d367 44bd 4a0d 603d 5bf6 3abd 4254 683c
00000130: 8834 72bd 1b5f 11bd 1a33 36bc 2bef ddba
00000140: 26b9 84bd c599 24bd 23b8 713c a2ca 19bd
00000150: 3501 5cbd c61c b8bc 29a7 733d c863 533d
00000160: 5cea 65bd 7171 6cbd 0e25 b63c 8ea4 3d3d
00000170: e28b 6bbc 2db2 e3bc 53f9 613b 0098 e6bc
00000180: 2a53 183d 0d25 b1bc c66a afbb 2df1 da3a
00000190: d1e7 403d ae19 f63c 9dd5 a53c 9ffc 02bd
000001a0: 220c 873d bcf1 03bd 59c9 c5bc ecdc 8a3c
000001b0: 6897 573a 4cef 6fbd 9bf5 84bb ba87 34bd
000001c0: da56 2abd 573a 3f3c 5f6d 553d 5328 74bc
000001d0: 5ace d13c bbab 3b3d b617 4bbd e4f1 0e3c
000001e0: 3e0a 6bbb 942a 543d 9448 643d 3bd8 06bd
000001f0: 92d5 8c3c 399e a23c 4dd6 253d 9b90 66bd
00000200: c2dc 833d 39c6 313d f6d5 f13a d857 223c
00000210: d6a0 773d 991f 91bc e5f4 e5bb 5c56 8e3c
00000220: 2a2d 5b3d b3c6 d3bb 637a 32bc 1cd9 da3c
00000230: 84c7 283c 8c49 673d 5983 3dbc 7fce ce3c
00000240: 42cb da3c 3140 d2bc e74f 9a3b 788b 7d3c
00000250: 1bf5 1abd 5f4d 6a3d 7d9f 2dbd d72c a7bb
00000260: 296d 43bc ab27 76bc 5449 233c 6ee3 7bbd
00000270: 5531 263d e184 6a3d f33b b3bc 615c ed3b
00000280: cb7e ccbb 7204 593d 141f 273d 067f 8ebb
00000290: 6372 bbbc cbf6 4cbd 826e 00bc 4c8b 333c
000002a0: 37b1 cc3c 599e 7b3c f465 383d 1a92 a8bb
000002b0: 725d 61ba 0da2 88bc c0aa 36bc f7e7 00bd
000002c0: 815f 6e3d 3654 7cbd 644c 233b b0bd bdbc
000002d0: c520 bb3c e245 8abc 23f1 143d 629a 78bd
000002e0: 4059 1f3d a80d e0bc 2805 b83c f755 28bb
000002f0: cae3 a7bb 7feb 7e3d 0761 9a3c e607 99bc
00000300: c952 45bd e343 b63c 0276 c6bc 14d2 c8bc
00000310: 55f0 94bc b146 4cbd 7288 b93c 403b 20bd
00000320: 6e66 fbba 739a a03c a4b2 b73b df09 1bbd
00000330: 60db 983b 33d2 b13c 6f92 f53a ab10 e03c
00000340: 066f dd3b 293e e639 6d72 42bb 8b98 513d
00000350: ccb6 82bd b422 38bd 3ba4 01bd e703 b63c
00000360: ad80 5a3d 42fe 9bbc 662c 1dbc 1918 38bd
00000370: dc59 a5bc 4504 3b3c 88ae 593c 7030 52bb
00000380: d5f7 1e3c 19b3 1f3d f3c0 5b3c ac57 16bd
00000390: f0c5 06bd b232 013d e3ca 6c3d 8cde 44bd
000003a0: 3d40 4dbd 676e d2bc 6a89 dcbc e397 08bd
000003b0: 9b19 f3bc 332b 4abd a13e 17bd 2c16 34bd
000003c0: bba8 e83b e5e4 223d a044 2ebd 9d3f 2cbb
000003d0: 41ca a33c 4214 e539 19af 953c 774d 68bc
000003e0: bed4 97bb 82c9 12bd 3dc0 643c a2bd ae3c
000003f0: adf3 40bd 3ef9 49bd 9ae7 53bc 35ae d43c
0.02418352 -0.046350576 -0.053014584 -0.03544453 -0.050732423 0.04503667 0.053192735 -0.05667574
0.026861096 0.041207846 0.03373453 0.011701461 0.03571822 0.026900161 -0.014576011 0.04200767
0.037271168 0.05378347 -0.048656218 -0.05772589 0.021373687 -0.058427032 -0.054134883 -0.04936211
0.047261067 -0.026472937 -0.004747937 -0.0098250555 0.055435583 0.050801825 0.018443432 -0.043225512
0.010176612 -0.004612996 0.013590158 0.060809307 0.033642005 -0.009099196 -0.04026498 0.03623336
0.02663803 0.032401077 0.03661941 0.037001625 -0.05808931 0.017404584 0.0064833714 -0.01499719
-0.047062267 0.052832153 -0.009077171 -0.068739586 0.042903196 -0.02116185 0.018405277 0.040465653
0.04121064 -0.05648737 0.004595153 0.06213058 -0.0048312307 0.003702676 -0.036933675 0.012235272
-0.029235402 -0.0056341863 -0.020156585 0.008500028 -0.05656304 -0.04152878 -0.05226387 0.015819687
-0.047950577 0.054700173 -0.0456451 0.014180245 -0.05913213 -0.03549109 -0.011120582 -0.001693224
-0.06480627 -0.04018571 0.014753374 -0.03754676 -0.05371209 -0.022474658 0.05948559 0.05160883
-0.056131706 -0.057725374 0.022234466 0.04629951 -0.014376612 -0.027794922 0.0034480884 -0.028148651
0.037188686 -0.021624113 -0.0053533046 0.0016703956 0.047096077 0.030041542 0.02024346 -0.0319792
0.06594111 -0.032212958 -0.024143862 0.016951047 0.00082241604 -0.05857782 -0.0040575988 -0.04407475
-0.041586734 0.011671624 0.052106258 -0.014902192 0.025611091 0.04581807 -0.04958316 0.008724663
-0.003586426 0.05179842 0.05573328 -0.032921057 0.017191682 0.019850837 0.040487576 -0.05629025
0.064385906 0.04340193 0.0018450606 0.009908639 0.06045612 -0.017715262 -0.007017719 0.017375164
0.05350987 -0.006462896 -0.010893437 0.026714854 0.0103014745 0.056466624 -0.01156696 0.02524495
0.026708249 -0.025665374 0.004709232 0.0154751465 -0.037831407 0.057202693 -0.042388428 -0.005101781
-0.011927881 -0.015024106 0.009966213 -0.06149619 0.04057439 0.05725563 -0.021879172 0.0072436784
-0.006240701 0.052982755 0.040801123 -0.0043486385 -0.022881692 -0.050040048 -0.007838847 0.010958504
0.024986846 0.015357577 0.045019105 -0.00514437 -0.0008596993 -0.016678834 -0.011149108 -0.03147122
0.05819655 -0.061603747 0.0024917359 -0.02316174 0.022842774 -0.016879026 0.03636278 -0.060694106
0.038903475 -0.027350262 0.022463396 -0.0025686005 -0.00512359 0.062236305 0.018845094 -0.018680524
-0.048174653 0.022249168 -0.024226192 -0.024514236 -0.018181005 -0.049872104 0.02264807 -0.039119005
-0.0019180307 0.019604897 0.0056060124 -0.03785121 0.0046648234 0.021706676 0.0018735657 0.027351698
0.00675762 0.00043915331 -0.0029670254 0.051170867 -0.06382522 -0.04495497 -0.031650763 0.022218658
0.05334537 -0.019042138 -0.009593105 -0.044944856 -0.02018445 0.011414592 0.01328624 -0.0032072328
0.009702642 0.03898916 0.013412702 -0.036704704 -0.03290361 0.031542487 0.057810675 -0.0480638
-0.05011009 -0.02568741 -0.026920993 -0.033347975 -0.029675296 -0.049357604 -0.036924962 -0.043966457
0.0071001924 0.039769072 -0.042545915 -0.0026283034 0.019993903 0.00043693377 0.01827197 -0.014178625
-0.004633515 -0.035836704 0.013961849 0.021330658 -0.047107387 -0.04930996 -0.012933636 0.025961975

user_tower.network.1.weight f4 [256]
00000000: b630 7f3f 0084 7e3f cb10 7f3f 33e5 7f3f
00000010: 497d 7f3f e6be 803f 5d2c 803f c60b 7e3f
00000020: ad29 7f3f c22a 7f3f 52e1 7e3f 3c15 803f
00000030: 512c 803f d8e7 7f3f a8ce 7e3f 958d 803f
00000040: bbeb 7d3f e93a 7f3f a1b8 7f3f 7e6e 803f
00000050: 0a31 803f 2e46 803f de10 803f 73f8 7f3f
00000060: 71a9 7f3f b313 803f d683 803f 843d 7f3f
00000070: 5d3d 803f f36e 803f 5b92 7f3f 6977 803f
00000080: 4e13 803f d31f 803f 381d 803f e23e 803f
00000090: 4e3c 803f acbb 7f3f 94e8 803f fa5c 7f3f
000000a0: bf7a 7f3f 0cb6 803f 5134 803f 5e05 803f
000000b0: 1b7d 803f 988d 7f3f 1509 803f 94ba 7e3f
000000c0: b31c 813f 7fcc 7e3f 83fc 7e3f 1ffd 7d3f
000000d0: 9499 7e3f 7cbe 803f 5350 7f3f 4cb9 7e3f
000000e0: c704 803f 2154 7f3f 392d 803f 104f 803f
000000f0: 1c9d 7f3f 8aad 803f bc94 803f 29df 803f
00000100: e773 803f ee13 803f 7f83 7e3f 4a4f 803f
00000110: df6a 803f fab1 803f 29df 803f f18c 7f3f
00000120: 75e1 7f3f 9da4 7e3f bf2c 803f 23a1 7f3f
00000130: dc1a 803f b605 803f b90a 803f d484 803f
00000140: 2322 7f3f 8ab7 803f 2fa6 7f3f 921e 803f
00000150: 2131 803f 540c 803f 9c07 7f3f 7ad3 7f3f
00000160: f339 803f ff45 7f3f c221 803f de54 7e3f
00000170: 9db9 803f cc87 803f b64f 803f 2608 803f
00000180: 65fe 7f3f 1f8a 803f bc86 7f3f dda8 803f
00000190: d537 803f 6705 803f 57a9 7e3f be0e 803f
000001a0: 3c67 803f 332a 803f 4212 7e3f 7dfe 7e3f
000001b0: cce6 7e3f 588a 7d3f 992c 7f3f 1e3e 7f3f
000001c0: 540f 803f c2bc 7e3f e0e8 7e3f 16a3 803f
000001d0: b80a 803f 5a09 7e3f 27ec 7e3f 373f 803f
000001e0: 8120 803f 5649 803f ca92 7f3f 8631 803f
000001f0: 3c91 7e3f 512b 803f 7f9a 803f bfa7 803f
00000200: a759 7f3f 195e 7f3f 9424 803f e489 7f3f
00000210: 4d29 813f 7dd4 7f3f a940 803f e92c 803f
00000220: ddbd 7e3f 14c2 7f3f af7c 803f 7521 803f
00000230: c8b3 7d3f 4a7b 7e3f 0284 803f 7c56 7f3f
00000240: 4b0d 803f ce31 803f 1818 803f c23d 803f
00000250: 551f 803f e358 7e3f 7aef 7f3f 4710 803f
00000260: f90a 803f 5b64 803f 3abf 7f3f f733 803f
00000270: 13b7 7f3f 36da 7f3f c6aa 7f3f 1908 803f
00000280: 087e 803f eafc 803f fd05 803f b634 7e3f
00000290: 3268 7f3f ef2c 803f 4610 7f3f f429 813f
000002a0: cd68 7f3f 531d 7f3f 3c9e 803f 4547 7f3f
000002b0: e4c8 803f 777b 803f 02eb 7f3f cc21 803f
000002c0: e8ad 803f f680 803f c42c 7f3f 5d47 803f
000002d0: 23a6 7f3f 9724 7f3f 2747 803f a555 803f
000002e0: cc42 803f 256e 7d3f fb86 803f f72b 813f
000002f0: a89e 803f 36ea 7d3f fb06 7f3f 9312 803f
00000300: 778c 803f 3a29 803f 1379 7e3f 5a43 7f3f
00000310: 0b2c 803f 44d6 7e3f 8fae 803f 4760 803f
00000320: 9461 803f 6e7d 7f3f e2af 7f3f 8565 7f3f
00000330: c29a 803f fdd3 7f3f 5703 7f3f 8059 803f
00000340: 0be7 7e3f 0f29 7f3f 3d75 803f 5c33 7f3f
00000350: a387 803f 447c 803f e68f 803f 3b6f 803f
00000360: b9e1 7f3f bfcb 803f a619 7f3f 27c4 803f
00000370: ca6c 803f 9ac1 803f 18cc 7e3f f98c 803f
00000380: 881d 803f 8f48 803f eb90 803f b6b8 7f3f
00000390: 6861 803f aa1e 7f3f e258 7f3f 4087 803f
000003a0: 7536 803f 4333 803f c36e 803f dfaf 7e3f
000003b0: 20b1 7e3f 694b 803f 7c3e 803f d0f8 7f3f
000003c0: 964d 803f 73bc 7e3f 712c 803f a634 7d3f
000003d0: 71e4 803f 2f3c 803f c19b 7f3f 74a8 7e3f
000003e0: 449a 803f 9b8d 7d3f e0c6 803f f402 803f
000003f0: c470 803f 5f02 803f 1efe 7e3f 0cef 7f3f
0.996837 0.99420166 0.99635 0.99959105 0.99800545 1.0058258 1.0013539 0.99236715
0.9967297 0.9967462 0.9956256 1.000648 1.0013524 0.9996314 0.9953408 1.0043207
0.9918782 0.99699265 0.99891096 1.003372 1.0014966 1.0021417 1.0005147 0.9998848
0.9986792 1.0006012 1.0040233 0.9970324 1.0018727 1.0033859 0.99832696 1.0036441
1.0005891 1.0009712 1.0008917 1.001919 1.0018404 0.9989574 1.0070977 0.99751246
0.9979667 1.0055556 1.0015966 1.0001638 1.0038179 0.9982543 1.0002772 0.99503446
1.0086883 0.99530786 0.9960405 0.9921436 0.9945309 1.0058131 0.9973194 0.9950149
1.0001458 0.99737746 1.0013801 1.0024128 0.99849105 1.005296 1.004539 1.0068103
1.003537 1.0006082 0.994194 1.0024197 1.0032614 1.0054314 1.0068103 0.99824435
0.99953395 0.9946993 1.0013655 0.9985525 1.0008197 1.0001743 1.0003272 1.0040536
0.99661463 1.0056012 0.9986295 1.0009329 1.0014993 1.0003762 0.99620986 0.9993206
1.0017685 0.9971618 1.0010302 0.9934825 1.0056645 1.0041442 1.0024326 1.0002487
0.9999755 1.0042151 0.99814963 1.0051533 1.0017039 1.0001649 0.9947714 1.0004499
1.0031505 1.0012878 0.9924661 0.9960707 0.9957092 0.9903922 0.99677426 0.9970416
1.0004678 0.9950677 0.9957409 1.004977 1.0003271 0.9923302 0.9957909 1.0019292
1.000992 1.002238 0.9983336 1.0015113 0.9944036 1.0013219 1.0047148 1.0051192
0.99746174 0.99752957 1.0011163 0.9981978 1.0090729 0.99933606 1.0019733 1.0013705
0.9950846 0.99905515 1.003805 1.001021 0.9910245 0.99406874 1.0040286 0.9974134
1.0004057 1.0015199 1.0007353 1.0018847 1.0009562 0.9935438 0.9997479 1.0004967
1.0003349 1.0030626 0.99901164 1.0015858 0.99888724 0.9994234 0.99869955 1.0002471
1.0038462 1.0077183 1.0001827 0.9929918 0.99768364 1.0013713 0.99634206 1.0090928
0.9976929 0.9965412 1.0048289 0.99718124 1.0061307 1.0037678 0.9996797 1.0010314
1.0053072 1.0039356 0.9967768 1.0021778 0.9986288 0.99665207 1.0021714 1.0026137
1.0020385 0.9899619 1.0041193 1.0091542 1.0048418 0.991855 0.99620026 1.0005668
1.0042866 1.0012581 0.99403495 0.99712145 1.0013441 0.99545693 1.0053271 1.0029382
1.0029778 0.99800766 0.9987775 0.9976428 1.0047228 0.99932843 0.9961447 1.0027313
0.99571294 0.99672025 1.0035778 0.99687743 1.0041393 1.0037923 1.0043914 1.0033945
0.999538 1.0062178 0.9964851 1.0059861 1.00332 1.0059083 0.9953017 1.0043021
1.0009012 1.0022143 1.0044225 0.9989122 1.0029726 0.99656165 0.99745 1.0041275
1.0016619 1.0015644 1.0033802 0.9948711 0.9948902 1.0023013 1.0019069 0.9998903
1.0023677 0.995063 1.0013562 0.9890846 1.0069715 1.0018367 0.99847037 0.9947579
1.0047078 0.990442 1.0060692 1.0000901 1.0034413 1.0000724 0.996065 0.9997413

user_tower.network.1.bias f4 [256]
00000000: 9be7 183a 42f4 48ba d45a 9cbb f538 70ba
00000010: 5c1c ea3a 8d78 663b 31a9 9b3a 0833 9cbb
00000020: bd64 a5bb 551e 90bb b8ac e2ba 6c42 0abb
00000030: 6459 ac3b db6e a8bb 1249 c7bb 591c 0a3c
00000040: b5b0 88bb b61f 273b 76a6 933b f567 983b
00000050: f83c 4b3a e598 cb39 3d28 343b 2c97 ab3a
00000060: 8e32 80bb 6831 243b 206e 2d3b cfe9 1fbb
00000070: b7c2 a33b 952d 403b 7dac 04bc 5e18 723a
00000080: 53ce 973b 1b6a 7bbb 7db8 94bb 9d21 8cbb
00000090: 7b8f fb3b 28e3 143b b8d1 d23b 5b0c bd3b
000000a0: e494 3f3b deef 88ba 9372 3f3b da6f a43a
000000b0: 60bd b33b 0ad3 94ba c1fb c8b9 c145 0dbb
000000c0: 28d4 043c a95d 1c3b e179 a1bb b400 e9bb
000000d0: 1cb1 c5bb 739e d73b ae8a 62ba 3896 4dba
000000e0: 3c20 d1ba fe86 47bb befd 98bb 09ea 52ba
000000f0: 9633 a43a 131e 9f3a 5f84 a03b 6858 a13a
00000100: 540d 06bb 9448 c2bb 1120 053b a37b ea3a
00000110: 7397 6d3b 595f 8e39 5f22 f73b 0d2e 80bb
00000120: 84b1 2a3b 6885 85bb d70c d238 4953 48bb
00000130: f699 b5ba 7201 ecba 91f6 393b 0e58 863b
00000140: 1087 a5ba 3b12 be3a e246 263b 80d7 b2bb
00000150: 523b 67bb 9c4a 413a 2399 07bb 5806 97bb
00000160: 998c 833b 0143 52bb fc88 08bb 8e8d c3bb
00000170: 9da3 723b df05 f83a d751 803b 3713 993b
00000180: 86c5 9cb9 8fdb 7bba f031 ddbb ce89 253b
00000190: af76 11bb 447d 4d3b 18c7 a9bb c1fa 0c3b
000001a0: cf3d 1abb 3a0e 913a 587c bcba 2856 f3bb
000001b0: bf6a 66bb 3af2 1bbc 37cc fbba 05cc 273a
000001c0: d69f 963a 61a2 d8ba ec6d 9fbb 8ae0 b43b
000001d0: 74a4 59bb a23e 0fbc 88db c5bb 0207 3ebb
000001e0: 6aab 8d3a 909d 0abb 4cac 7ebb 79b9 673a
000001f0: b214 b0bb 671e df3b 6f57 473b f503 0a3a
00000200: 71b8 9eba 0153 ddba b727 553b c52a abbb
00000210: 6cdc e23b acff 7cba c194 e13a bc63 23bb
00000220: 1b12 bdbb e69c 4b3b 5b2b 513b 3f2c 5e3b
00000230: 8ccb bfbb bd01 bcbb 8b15 e13b 9890 15bb
00000240: 598e 113c 2b0c 27bb 3932 d93b c1bb e93b
00000250: 429d 193a 1982 81bb bbd8 d33a 7363 8c3a
00000260: efc4 aabb 0383 003c 43d4 50bb 6d8a 203b
00000270: 1f0f cbbb 7f15 c3bb 2070 37bb a085 103c
00000280: 97a3 323a 7352 2d3b 6ffc 0b3b 4555 0bbc
00000290: 4544 243b 9511 e93a 3532 7e3a ebe8 57bb
000002a0: cd66 68bb 9706 e6bb 48ea 8b3b fc32 4eba
000002b0: e4a9 303b 14f8 ac3b 6087 f4bb 6f95 2bbb
000002c0: 780a ba3b a23b 04bb 88ad 013b 1f64 38ba
000002d0: 4b36 a73a 4d76 b8b9 3eb6 85bb 3203 a23b
000002e0: fe85 fb3a 9562 cebb 00e0 8d3b 4ad6 8539
000002f0: 554e b03a 686d e3bb 5ba3 b7bb cd48 643a
00000300: 387a 283a 9930 58ba 37be 993a 8d64 a2bb
00000310: 36f7 5eba 39e7 c1bb dc33 f83b 9c0e 5b3b
00000320: 57a0 a73b 2e53 c5bb 47bb d3ba fc87 e739
00000330: a941 f83b 6996 5bba be48 d0ba 1840 033b
00000340: a23a 04b7 de9e 5cbb 2e55 cd3b d1a4 bdbb
00000350: 8433 a43b a927 9b3b 0fd1 cd3b 927a a4bb
00000360: 8ee3 a73a c64e e23b 3eba 843a 54e7 2439
00000370: 27d4 5bb9 aa20 103c b7c1 72bb 792c 9cba
00000380: 1362 883b 4578 4fba a123 533b 9cf7 68bb
00000390: 3acb 043b e123 933a 2f5d d0ba 86ac 73ba
000003a0: 25b8 123a 30d6 033b ccef 4a3b 1bd1 2439
000003b0: 13bd 59bb 47dd c43a 76e9 a7bb 4fd5 1a3a
000003c0: 17cf 803a 9d49 75bb 0698 ce3b cd1c aabb
000003d0: 25f4 d93a 761d bf3b 16c8 d23b d59f 09bc
000003e0: b8ce bcbb 31f2 a0ba bffb d53b 2986 9cba
000003f0: f1ae 683b e9cd 0dba 6835 0abc 262d dd38
0.0005832852 -0.0007665792 -0.0047715697 -0.00091637607 0.0017861235 0.0035167069 0.0011875984 -0.0047668256
-0.0050474093 -0.004398147 -0.0017293906 -0.002109672 0.0052596796 -0.005140168 -0.0060817087 0.00842961
-0.0041714557 0.002550108 0.0045059277 0.0046510645 0.00077529205 0.00038833093 0.0027489804 0.0013091317
-0.0039122766 0.0025053862 0.0026463345 -0.0024400835 0.004997577 0.0029324044 -0.008097765 0.00092351984
0.00463275 -0.0038362804 -0.0045385943 -0.004276468 0.0076770163 0.0022718403 0.006433692 0.005769295
0.0029233033 -0.0010447463 0.0029212579 0.0012545541 0.0054852217 -0.0011354398 -0.00038334544 -0.002155647
0.008107223 0.0023859537 -0.004927859 -0.0071106795 -0.006033076 0.006580168 -0.00086418807 -0.0007842514
-0.0015955041 -0.0030445452 -0.0046689203 -0.0008045738 0.0012527581 0.00121397 0.0048985924 0.0012309672
-0.0020454722 -0.005929062 0.0020313303 0.001788963 0.00362536 0.0002715539 0.007541939 -0.0039117397
0.002604575 -0.004074741 0.00010015972 -0.003056722 -0.0013855088 -0.0018005802 0.0028375725 0.0040998524
-0.0012628753 0.0014501283 0.002537184 -0.0054578185 -0.003528316 0.00073734834 -0.0020690642 -0.0046089105
0.0040145633 -0.0032083394 -0.0020833602 -0.0059678024 0.003702379 0.0018922648 0.003916006 0.00467148
-0.00029901805 -0.0009607607 -0.006750338 0.002525914 -0.0022195985 0.0031355182 -0.0051812045 0.0021511766
-0.0023535376 0.0011066862 -0.0014380319 -0.007426042 -0.003515884 -0.0095182005 -0.0019210641 0.0006400946
0.0011491727 -0.0016527885 -0.0048653986 0.005519931 -0.0033209594 -0.00874296 -0.006038133 -0.0028995876
0.0010808532 -0.0021151043 -0.003886002 0.0008839588 -0.005373561 0.006809044 0.0030417105 0.0005264872
-0.0012109411 -0.0016885699 0.0032524893 -0.0052236044 0.006923249 -0.0009651135 0.001721047 -0.0024931272
-0.0057699806 0.003106886 0.003191671 0.0033900884 -0.005853122 -0.005737512 0.006869023 -0.002282178
0.008884036 -0.002548943 0.0066283015 0.0071329777 0.000585992 -0.0039522764 0.0016162613 0.001071079
-0.0052114646 0.007843736 -0.00318648 0.002449657 -0.006196871 -0.0059534903 -0.0027990416 0.008820921
0.0006814538 0.0026446849 0.002136018 -0.008504217 0.0025065106 0.0017781729 0.00096968125 -0.0032945226
-0.0035461665 -0.0070198285 0.004269872 -0.00078658736 0.0026956731 0.0052785967 -0.007462427 -0.0026181599
0.0056775175 -0.0020177145 0.001978727 -0.0007033962 0.001275727 -0.00035183356 -0.004080563 0.0049442286
0.0019189713 -0.006298373 0.0043296814 0.00025527395 0.0013451079 -0.0069405325 -0.0056041903 0.0008708358
0.00064269034 -0.00082469877 0.0011729662 -0.0049558342 -0.0008505465 -0.0059174565 0.0075745415 0.0033425456
0.0051155495 -0.0060218787 -0.0016153835 0.0004416107 0.0075761867 -0.00083766 -0.001589082 0.0020027217
-7.881465e-06 -0.0033664028 0.0062662577 -0.00578747 0.005011024 0.0047349525 0.0062810252 -0.0050194943
0.0012808905 0.006906363 0.0010126305 0.00015726435 -0.000209645 0.00879685 -0.0037041733 -0.0011915109
0.004162082 -0.0007914345 0.0032217281 -0.0035547977 0.0020262734 0.0011225903 -0.0015896912 -0.00092954224
0.00055968977 0.002011668 0.0030965684 0.00015718157 -0.003322427 0.0015019559 -0.0051242663 0.0005906419
0.0009827343 -0.003742791 0.0063047437 -0.0051914216 0.0016628547 0.0058323694 0.0064325435 -0.008399923
-0.0057619475 -0.001227921 0.0065302546 -0.0011941838 0.0035504664 -0.0005409406 -0.008435585 0.00010546511

user_tower.network.1.running_mean f4 [256]
00000000: c5e1 393d 32c8 9ebd 96d5 05be 3cc2 45bd
00000010: 8cc5 c3bd dc46 883d 1a02 f3bc 2c84 15bd
00000020: 2590 813d a94d f93c 63a6 5d3d 39a9 e13c
00000030: 36a4 a4b8 e12f 693d 0e5e 52bb 2185 043b
00000040: d018 de3c a09a 103d 525e 8e3c e083 b0bd
00000050: 256a ce3c 49d0 e1bd 811e 75bb 9367 62bc
00000060: e3f3 cb3d ef40 97bd 2c54 9cbc c0db 92ba
00000070: 343c 08bc 3df6 3e3d ddd2 2b3d d723 18bc
00000080: f521 a2bc 721b ad3c 6f4e 7a3d 969c 2d3d
00000090: 653f db3c a333 053d 7e94 e9bc bfd7 9c3d
000000a0: b3d0 243c ee4a a73b b40b 883c 501d 773d
000000b0: 70f4 ccbc 9ecc 4dbc 81eb 1b3c b903 81bc
000000c0: 67e5 5dbd b66a 183c 0a40 41bc d99a fabd
000000d0: 501b 313c 6084 c83c cf47 c2bb cede fd3c
000000e0: e3d9 043d f747 64bc 4f37 8abd 4911 2f3d
000000f0: 53e4 65bd a79c 7dbc 7945 e2bb f9e7 513c
00000100: ea59 433d 25ea 993c e236 a7bc f10e f83c
00000110: 6021 36bd c4a9 fa3b 9724 84bd 6de7 9539
00000120: 0784 dfbd af42 a63d 93ac 80bd 6e7d 583d
00000130: e349 5bbd 9013 7fbd e82b 50bc 0945 3fbd
00000140: 872e 5dbd b0fc b3bd 2cd3 50bc f7b5 2fbc
00000150: 667e a6bc c518 d8ba fa8a 8f3d b724 b13d
00000160: 0dd5 6bbd ce1a 4ebd 2e50 563c 2d3f d63c
00000170: b97d e3ba 0d5e 31bd 61c1 cb3c 0e6f 97bd
00000180: f668 a13c d5af be3c 68ce 2b3c 55f7 eb3a
00000190: a23c 0d3c 9ebd 233d 8693 ca3a ad82 62bc
000001a0: 003d cb3d d97f 69bd d96c 33bd 40fb 953a
000001b0: 4c06 053d 67b4 d1bd 9909 f1bc 2a63 7dbd
000001c0: 9b14 92bd 2ed0 14bb fffe 043d bcbd 38bd
000001d0: b14d 303d 40e2 b83d 0028 1abd 1dce f43b
000001e0: 0b2a 8bbd bedb df3c 08d9 323d fd96 3f3c
000001f0: c542 6b3c 1f53 ab3c 50d5 aa3d d5fa 2fbd
00000200: 45e0 cc3d 96c1 973d af02 dcba e09b 2c3c
00000210: a829 d3bb 9b6b 253c 7385 ec3c 730f 593d
00000220: 5545 483d 1b91 f5bc 1c99 c63c 6ec0 533d
00000230: 05dc 073c d285 703d 727f a4bd 3128 ebbb
00000240: 6b17 523d 2dc5 41bd 0cc4 b1bc 36ff 8bbc
00000250: 7870 ea3c 143f 063d 2c9a 18bd f59b 2ebd
00000260: adde 613d ea2a 50bc 5491 013d b03e 91bd
00000270: 4b87 4d3d 7c50 58bb 8acd 4c3c d7f2 013d
00000280: b954 403d a460 453c 6e0a 343d 4585 b4bc
00000290: b5d7 00bc 5e6b 01bd 240e 113c 64bb ad3c
000002a0: fd11 13bd 02e8 683c ddc8 1ebb dede a6bc
000002b0: d281 4bbc eae0 073b 155c 293d f476 ed3b
000002c0: eda0 843b 804c 89bd 3375 3f3d d0a5 0dbc
000002d0: 702e 4b3c 977a 02bc 01c6 81bc 7bd2 dfbd
000002e0: 2443 dfbc 7c7c 46bc b5bc 7f3d 95ee 5d3c
000002f0: 02c3 89bb 77b2 bb3c 870e 243d 086f 8dbb
00000300: c382 a9bc 1abf 82bc f12f 87bd 8ed5 01bc
00000310: 54b6 efbc 1c2b bcbd 604d b43d 69dd 13bd
00000320: 52c4 9abc cc1b 853d 31ef 4cbd cd8c b8bc
00000330: e791 08bc a81f d03b cc96 2fbc ea87 9a3d
00000340: fc67 b4bb 9105 3b3c cd28 303d 9af4 123c
00000350: 4ee2 2dbd 070d 02bc b8b5 58bd 6cc7 e43b
00000360: 26a1 963c 8c4a 98bd 510b e8bc bc06 cdbc
00000370: c70a abbc a0f1 81bc 70b2 923c 386c 66bd
00000380: abf3 833c 4956 873d f306 b13c 80de e5bd
00000390: 1df3 e9bc a7a0 293d 96b7 edbc 20b7 80bd
000003a0: 0f03 1abd d2e7 06bd 3d53 1abd 7498 39bb
000003b0: cb75 3fbc 64d0 a2bd 5820 00bc 1ec8 00bd
000003c0: 838f 4d3d 70f4 323d 6c6d 10bd 7cb5 663d
000003d0: ec42 a83d 4afb 863c b5ad 78bc bac4 b7bc
000003e0: c41c deba a4b1 dd38 e01b 143b 9e78 1cbd
000003f0: 84df 8ebd 5aad bb3b 41f3 fc3c 573d 753d
0.045381326 -0.07753028 -0.13069758 -0.04828094 -0.095591635 0.0665414 -0.029664088 -0.036503002
0.063263215 0.030432539 0.054113757 0.027546512 -7.850716e-05 0.056930427 -0.0032099518 0.0020220953
0.02711144 0.035303712 0.01737896 -0.08618903 0.025197098 -0.11026055 -0.0037402215 -0.013818639
0.09958627 -0.07385432 -0.019083105 -0.0011204407 -0.008315135 0.04662155 0.04194914 -0.009285889
-0.019791583 0.021131251 0.061109956 0.04238566 0.026763627 0.032519948 -0.02851319 0.07658338
0.010059523 0.005105368 0.016607143 0.06033069 -0.0250189 -0.012560992 0.009516598 -0.015748845
-0.054173853 0.009302786 -0.011795053 -0.12236566 0.010809734 0.024477184 -0.0059289704 0.03099003
0.032434355 -0.013933173 -0.067488305 0.042741094 -0.05612595 -0.015479243 -0.0069052544 0.012811654
0.04769317 0.018788407 -0.020411912 0.030280562 -0.044465423 0.007649632 -0.064522915 0.0002859192
-0.10913854 0.08118188 -0.06282916 0.052853994 -0.05353726 -0.062274516 -0.012705781 -0.046696696
-0.05399945 -0.08788431 -0.01274566 -0.010724536 -0.020323943 -0.0016486874 0.070089296 0.08649581
-0.057576228 -0.05031853 0.01308064 0.026153171 -0.0017356194 -0.043302584 0.024872484 -0.07394229
0.01970337 0.023277203 0.010486223 0.0018002788 0.008620413 0.039975755 0.0015455342 -0.013825101
0.09923744 -0.05700669 -0.043804977 0.0011442676 0.03247671 -0.10239487 -0.029423522 -0.06186215
-0.071328364 -0.0022707093 0.032469746 -0.04510282 0.043042842 0.09027529 -0.037635803 0.0074708597
-0.067951284 0.02732646 0.04366401 0.011693713 0.014359181 0.020913659 0.083414674 -0.04296382
0.100037135 0.074099705 -0.0016785468 0.01053521 -0.006444175 0.010096456 0.028872227 0.05299325
0.048894245 -0.029976418 0.02424293 0.051697187 0.008292203 0.05872137 -0.08032121 -0.007176422
0.051291864 -0.047307182 -0.021699928 -0.017089467 0.028618082 0.032775 -0.037256405 -0.0426292
0.055144 -0.012705544 0.031632736 -0.07092035 0.050177854 -0.0033006957 0.012500176 0.03172573
0.046955798 0.012046967 0.04395526 -0.022036204 -0.007863929 -0.031596534 0.008853469 0.021207519
-0.035905827 0.014215471 -0.002422861 -0.020369943 -0.012421088 0.0020733424 0.041347582 0.0072468463
0.004047504 -0.06704044 0.04674263 -0.00864549 0.012401208 -0.007963798 -0.015841486 -0.10928818
-0.027253695 -0.01211464 0.062435824 0.013545652 -0.004204155 0.022912247 0.040052917 -0.0043162145
-0.020692235 -0.015960265 -0.06600941 -0.007924451 -0.029261746 -0.0918791 0.088038206 -0.036099825
-0.018892441 0.064994425 -0.0500328 -0.022528077 -0.008335567 0.00635143 -0.010717105 0.07545455
-0.00550556 0.011414901 0.04300766 0.00896945 -0.04245215 -0.007937676 -0.052907676 0.0069817808
0.018387388 -0.07436094 -0.028325709 -0.025027625 -0.020879162 -0.015862286 0.017907351 -0.05625555
0.0161074 0.066082545 0.021609759 -0.11224079 -0.028558308 0.041412976 -0.029018205 -0.06284928
-0.037600573 -0.032935925 -0.03767704 -0.002831963 -0.011685799 -0.079499036 -0.007820211 -0.031440847
0.05018569 0.043690145 -0.035260603 0.05632542 0.08215889 0.016477246 -0.015178134 -0.022432674
-0.0016945829 0.00010571189 0.0022599623 -0.038200967 -0.06976226 0.005727452 0.030877711 0.05987295

user_tower.network.1.running_var f4 [256]
00000000: 1231 933d 4f19 933d 530d 933d e619 933d
00000010: 6f0b 933d 7810 933d 0e16 933d 1918 933d
00000020: b113 933d 362c 933d 3115 933d 7e1d 933d
00000030: 7f0f 933d 9e10 933d 6312 933d 3613 933d
00000040: 400e 933d 4818 933d 2414 933d 7515 933d
00000050: 4417 933d bf1b 933d fc11 933d a213 933d
00000060: c611 933d 4e12 933d 4828 933d f732 933d
00000070: 1b10 933d 051b 933d 8118 933d e11d 933d
00000080: 3819 933d 3911 933d a916 933d c014 933d
00000090: 1e2c 933d 421e 933d d911 933d 7f12 933d
000000a0: e917 933d 9b12 933d aa14 933d 5516 933d
000000b0: 5014 933d 101c 933d e215 933d bd1c 933d
000000c0: 9b1c 933d 8e1e 933d 4e15 933d 0915 933d
000000d0: 2823 933d f81d 933d 091f 933d d011 933d
000000e0: 4f1a 933d 8e18 933d 2d27 933d 0719 933d
000000f0: 7114 933d 4318 933d 7f16 933d ca1b 933d
00000100: 2e13 933d ef1a 933d c714 933d 1219 933d
00000110: 100d 933d 811c 933d ee11 933d bf0f 933d
00000120: 9716 933d 6b14 933d 8d14 933d d814 933d
00000130: 0112 933d 7412 933d a41a 933d 381c 933d
00000140: 8714 933d 0b10 933d a513 933d fd13 933d
00000150: 0717 933d 0113 933d f013 933d 4a0e 933d
00000160: cb15 933d 2a15 933d 7610 933d 4e0f 933d
00000170: a810 933d 1814 933d 7f23 933d 1e14 933d
00000180: 2d19 933d b514 933d c410 933d 0714 933d
00000190: ff10 933d b71d 933d 6321 933d d614 933d
000001a0: 2114 933d a912 933d 0517 933d d311 933d
000001b0: 6414 933d bf0e 933d ac15 933d 151b 933d
000001c0: 9e10 933d 3b0f 933d 1c15 933d 3714 933d
000001d0: 511b 933d 220f 933d 5713 933d dd0f 933d
000001e0: 3211 933d 8e11 933d 2313 933d 5710 933d
000001f0: 6c1b 933d 221a 933d 4c12 933d 7710 933d
00000200: d813 933d a310 933d 370d 933d 0912 933d
00000210: 6015 933d e719 933d 0024 933d ae1a 933d
00000220: 9c24 933d 6c25 933d 421d 933d cb12 933d
00000230: 9712 933d f716 933d c215 933d be14 933d
00000240: 4516 933d f922 933d 6c1d 933d 2711 933d
00000250: dd1f 933d dc1f 933d 770f 933d b010 933d
00000260: cf13 933d 5d15 933d 8520 933d 0216 933d
00000270: 2819 933d 7625 933d 5c14 933d 6029 933d
00000280: 2818 933d 7613 933d 6a13 933d ed14 933d
00000290: 2c14 933d f212 933d 421f 933d 0522 933d
000002a0: 100c 933d 2410 933d 8b0f 933d 501e 933d
000002b0: 3d11 933d 9e1e 933d 6a11 933d 7e17 933d
000002c0: aa11 933d ff22 933d 0712 933d ec10 933d
000002d0: a11a 933d c614 933d 3d17 933d 6c10 933d
000002e0: a122 933d c015 933d 6116 933d c314 933d
000002f0: 6e27 933d c60c 933d c115 933d e311 933d
00000300: 3612 933d b817 933d c212 933d 2a0d 933d
00000310: d016 933d 6f1c 933d 8d16 933d f01c 933d
00000320: 021c 933d 0914 933d 3b15 933d 331c 933d
00000330: 2123 933d 6226 933d b513 933d 3e1d 933d
00000340: da1b 933d 8912 933d 2e1e 933d 4f18 933d
00000350: 4112 933d a013 933d 6520 933d 4516 933d
00000360: a217 933d ba14 933d 612a 933d 5b23 933d
00000370: de15 933d 9c14 933d 7f16 933d 3012 933d
00000380: 301c 933d 9313 933d 8015 933d 8d19 933d
00000390: b60e 933d fe19 933d 2615 933d d214 933d
000003a0: 381a 933d 6214 933d 110f 933d 0e19 933d
000003b0: b41a 933d 1925 933d 8417 933d b71f 933d
000003c0: 8a0f 933d 381c 933d e827 933d ab19 933d
000003d0: ea1c 933d d925 933d 5a1a 933d d013 933d
000003e0: 450d 933d 4d12 933d 7d1f 933d 0b1a 933d
000003f0: 6814 933d 4c19 933d 6a12 933d 2016 933d
0.07187094 0.071825616 0.07180276 0.07182674 0.07179915 0.071808755 0.07181941 0.07182331
0.0718149 0.07186167 0.07181776 0.071833596 0.0718069 0.07180904 0.07181241 0.071813986
0.07180452 0.07182366 0.07181576 0.07181827 0.07182172 0.071830265 0.071811646 0.07181479
0.071811244 0.07181226 0.071854174 0.07187455 0.07180806 0.07182888 0.07182408 0.07183433
0.071825445 0.07181019 0.071820565 0.07181692 0.07186149 0.071835056 0.071811385 0.07181262
0.07182295 0.07181283 0.07181676 0.07181994 0.07181609 0.07183087 0.07181908 0.07183216
0.071831904 0.07183562 0.07181798 0.071817465 0.0718444 0.071834505 0.07183654 0.07181132
0.07182752 0.07182418 0.071852066 0.07182508 0.07181633 0.07182362 0.07182025 0.07183035
0.071813926 0.071828716 0.07181697 0.07182516 0.07180226 0.07183171 0.07181154 0.07180738
0.07182043 0.07181629 0.07181654 0.0718171 0.07181168 0.07181254 0.07182816 0.07183117
0.0718165 0.07180794 0.07181481 0.07181547 0.071821265 0.07181359 0.07181537 0.0718046
0.07181891 0.07181771 0.07180874 0.071806535 0.07180911 0.07181567 0.07184505 0.071815714
0.07182536 0.07181684 0.07180932 0.07181554 0.07180976 0.07183402 0.071841024 0.071817085
0.07181574 0.071812935 0.07182125 0.07181134 0.071816236 0.07180547 0.07181868 0.071829
0.07180904 0.07180639 0.07181761 0.0718159 0.071829446 0.07180621 0.07181423 0.0718076
0.07181014 0.07181083 0.071813844 0.07180851 0.07182965 0.07182719 0.07181224 0.07180875
0.07181519 0.071809076 0.07180255 0.07181174 0.07181811 0.07182675 0.07184601 0.07182823
0.07184717 0.07184872 0.07183315 0.07181319 0.0718128 0.071821146 0.07181884 0.07181691
0.07181982 0.07184405 0.07183346 0.07181006 0.07183812 0.07183811 0.07180684 0.07180917
0.071815126 0.07181809 0.07183937 0.07181932 0.071825325 0.071848795 0.071816176 0.07185626
0.07182342 0.07181446 0.07181437 0.07181726 0.07181582 0.07181348 0.07183696 0.07184223
0.07180035 0.07180813 0.07180699 0.07183516 0.07181022 0.07183574 0.07181056 0.07182215
0.071811035 0.07184409 0.07181173 0.07180962 0.071828134 0.071816966 0.07182167 0.071808666
0.07184339 0.07181883 0.07182003 0.07181694 0.07185255 0.07180171 0.071818836 0.07181146
0.07181208 0.07182258 0.07181312 0.07180245 0.071820855 0.07183158 0.071820356 0.07183254
0.071830764 0.07181556 0.07181784 0.07183113 0.07184435 0.07185055 0.07181493 0.07183312
0.07183047 0.0718127 0.07183491 0.07182371 0.07181216 0.071814775 0.07183913 0.07181982
0.07182242 0.07181688 0.071858175 0.07184478 0.07181905 0.07181665 0.07182025 0.07181203
0.07183111 0.07181468 0.07181835 0.07182608 0.0718054 0.07182692 0.07181768 0.071817055
0.07182735 0.07181622 0.07180608 0.07182513 0.071828276 0.0718481 0.071822196 0.071837835
0.07180698 0.07183117 0.07185346 0.0718263 0.07183249 0.07184953 0.071827605 0.07181513
0.07180265 0.07181225 0.0718374 0.07182702 0.071816266 0.07182559 0.071812466 0.071819544

user_tower.network.4.weight f4 [128, 256]
00000000: 498e a83c b755 d9bc 3809 0d3c aec8 b7bb
00000010: fa7c d33c f3ca 5abd 8d5e 08bc 95b5 4e3c
00000020: f593 9b3c 8329 41bd 20a0 01bc 6fab 9c3b
00000030: 3a44 18bc 6437 a1ba 9331 6a3d 63d5 3a3d
00000040: 1b3e 28bc 4996 61bd 232d 70bd ac5d 793c
00000050: 67c6 f8bc 319f 523d 5ca5 11bc def0 623c
00000060: f2c8 c13b a855 733d 8937 aebc dc5e ba3a
00000070: 9f94 5b3c 4214 31bd 4fc7 fb3c bcc3 263a
00000080: b7a4 033b 59fe f2bb 47bc 833c b3a3 353d
00000090: fb74 353d 03da b13a 9b0c 64bd 66c4 ce3c
000000a0: f64e 56bd 3239 4ebd 2709 863d 9076 263d
000000b0: fa87 2dbd a305 adba 52b2 613c 947b 16bd
000000c0: 03df 333c 2c9a 013b 7011 fdbc f55f afba
000000d0: 2339 0b3d 30e1 183d d9a7 1dbd ec78 693c
000000e0: 868f 76bc 587f 433d be23 1fbd 76a3 52bc
000000f0: 9350 173d 70fa e4bb a1e6 d9ba 228b 95bc
00000100: f9ac 52bd 4a8e a43c 4903 593d 0bef a13c
00000110: 4c54 43bd 4c32 d1bc 66c9 6c3c 03dd d23c
00000120: 9028 123d 9d6d 053d 7bba c0bc 14b8 823c
00000130: 4d12 313d 2cad 86bc 0a86 363d 56a7 40bd
00000140: 3d0b d83c 9a04 1cbd b3fe 5b3c 01ed 84bc
00000150: 7da9 183d 1285 58bd ca2e bcbc 4052 df3c
00000160: 8def dd3c bb06 5ebd 1718 20bd 3da1 81bd
00000170: 28e0 0abd 5eec 573d 0f25 3e3b 5658 6ebc
00000180: a888 76bd c80d 21bc f62e 5f3b bee9 a23c
00000190: a112 60bc 67d3 573d 5252 a63c ec9a 34bc
000001a0: 006c 6cbd a440 5e3d 960a cd3b 4e3d 62bd
000001b0: e656 e5bb 4d3d ba3b cbaa 5cbd c45d fb3c
000001c0: 303f 8f3c 5387 e2bc f33d 06bd 3c04 2e3d
000001d0: 6fa3 4f3c bb17 7cbc 3fdd d0bc 7bc4 583d
000001e0: 72a3 84bb b104 f03c b096 053d 318a 08bd
000001f0: e453 3fbd 28ae 54bc 75b6 a9bc 4b12 2b3d
00000200: 9a6c e0bc 5263 c6bb 5474 1fbd f297 62bd
00000210: 912c 933b 20cd db3c a989 663d 73c8 c43c
00000220: 1416 2dbd 1b98 eb3c df44 fcbc 3598 553d
00000230: 948b afbb 731f 38bd 4244 053d 01da ed3c
00000240: 3871 843d b7e4 7e3b 3ad0 693d e8eb f23c
00000250: 6122 e13c 4758 733d c526 c93c 1809 64bd
00000260: c04c f7bc 40a6 2ebd 1252 d13c 2589 38bd
00000270: 3b0e cabc 63d3 133d e52e 55bc 308b 1f3d
00000280: fa5d 883d 2d25 6a3c e48a 993c 41e0 cabc
00000290: c57b 78bd e6a1 453d 0eb7 023d d536 0fbd
000002a0: 0230 493b 9e73 373d aade ed3c 2583 abbc
000002b0: 8f27 553d 50e8 efbc b9d0 30bd 8222 0e3d
000002c0: 6e27 82bc 12f0 713d e6b4 b53c d756 73bd
000002d0: e341 1fbd 32b8 e9bc 1fb6 593d 737a 80bd
000002e0: 7644 45bd 3d82 a9bc a2ad 913c ab47 923c
000002f0: c11c 4d3d a79d 183d feed 183d bab3 e6bc
00000300: 167c 28bd 5412 e339 7631 4e3d e818 59bc
00000310: 1f77 04bd 9cdb 5b3d 0104 7a3d 657a 43bd
00000320: 3645 4b3b 0d82 77bc 6b20 33bc d97a 3bbd
00000330: 17d5 67bd 4492 623c a828 9b3c 0533 8dbb
00000340: bbae 03bd c9eb 763d 7c62 2e3d d686 623c
00000350: 326e 7cbd 0ef1 5b3d 1ca5 4cbb 74d6 78bc
00000360: 590a 9bbc 94fc a6bc 8e8b 443c 9add d83c
00000370: a1b8 2bbc 45db d1bc d97a 6cbd c652 ac3b
00000380: d8de fbbb 991c 05bc b3f1 343d d23b 9f3c
00000390: a463 36bd 0f1d ae3c 3099 42bd 283e 37bd
000003a0: b46a 163d 28ae 7dbd b51d 09bd 904c 67bd
000003b0: 88c4 3cbd 1f06 5bbc dcbb 633d 58e0 68bd
000003c0: 71e9 0cbd c551 59bd 8677 45bd d151 003d
000003d0: c60a 97bc d48c a0bc 7be0 07bd ce0e 5dbd
000003e0: 315b 5dbd 2af8 603b a1bf 933c 597e a13c
000003f0: d995 04bd c28d aabc e8a2 00bd 0ff6 bf3c
0.02057566 -0.02653013 0.008608155 -0.0056086397 0.02581643 -0.053416204 -0.008323324 0.012616535
0.01899145 -0.04715873 -0.007911712 0.0047811787 -0.00929361 -0.0012299833 0.057176184 0.045613658
-0.010268713 -0.055074964 -0.058636796 0.015220087 -0.030368043 0.051421348 -0.008889522 0.0138513725
0.005913847 0.05940786 -0.021266716 0.0014218944 0.013402133 -0.04323221 0.030734686 0.0006361564
0.0020087191 -0.0074155745 0.016080989 0.04434557 0.044301014 0.0013569001 -0.055676084 0.025240134
-0.052321397 -0.050347514 0.065447144 0.040640414 -0.042366005 -0.0013200532 0.013775425 -0.036738947
0.010978463 0.0019775731 -0.030892104 -0.0013380038 0.033990037 0.03732413 -0.03849015 0.014250021
-0.015048867 0.047728866 -0.038852446 -0.012856355 0.036942076 -0.0069878623 -0.0016624519 -0.01825482
-0.05143449 0.02008738 0.05298165 0.019767305 -0.047687814 -0.025536679 0.014452314 0.025740152
0.035683215 0.03257524 -0.02352642 0.015956916 0.043230344 -0.016439997 0.044561423 -0.047034584
0.026372546 -0.038090326 0.013427424 -0.016226294 0.03727101 -0.05286128 -0.02297153 0.0272609
0.027091766 -0.054205637 -0.039085474 -0.06329582 -0.03390518 0.05271565 0.0029013788 -0.014547428
-0.06018892 -0.009829946 0.003405509 0.019886848 -0.0136763165 0.052691843 0.020302925 -0.011023264
-0.057720184 0.054260865 0.0062573655 -0.055234246 -0.0069988845 0.005683577 -0.05387382 0.03068436
0.017486185 -0.027652418 -0.032773923 0.042484507 0.012673243 -0.015386517 -0.025496123 0.052921753
-0.0040478045 0.029299112 0.03261441 -0.033334915 -0.046710864 -0.012980975 -0.020716885 0.041765492
-0.027395535 -0.0060543204 -0.0389293 -0.055320688 0.0044913967 0.02683121 0.056283627 0.024021363
-0.042257383 0.028759053 -0.030794559 0.05214711 -0.005357215 -0.044951867 0.0325358 0.029034616
0.06466907 0.003889365 0.057083346 0.029653504 0.027482213 0.05941036 0.02455462 -0.055672735
-0.030187964 -0.042639017 0.02555183 -0.045052666 -0.024664989 0.036090266 -0.013011669 0.0389511
0.066585496 0.01429109 0.018742986 -0.024765136 -0.06066491 0.0482501 0.031912856 -0.0349644
0.003069878 0.044787996 0.029036839 -0.020936558 0.05203968 -0.02928558 -0.043167803 0.034700878
-0.015887942 0.05906684 0.022180986 -0.05940899 -0.038881194 -0.028530214 0.0531522 -0.06273355
-0.048160993 -0.020691985 0.01778299 0.01785644 0.05007625 0.037259724 0.037336342 -0.028161872
-0.041133963 0.0004331047 0.05034014 -0.013250567 -0.032340165 0.053676233 0.061038975 -0.047724146
0.0031016595 -0.01510669 -0.010933022 -0.045771454 -0.056599703 0.013828818 0.018940285 -0.0043090605
-0.032149058 0.060283456 0.04257439 0.013826093 -0.061628528 0.053696685 -0.0031226343 -0.015187848
-0.018925833 -0.02038411 0.011996163 0.026472855 -0.010481031 -0.025617251 -0.057734344 0.005258891
-0.007686477 -0.008124494 0.044175815 0.019437704 -0.04452862 0.02125409 -0.047509372 -0.04473701
0.036722854 -0.061933666 -0.033475596 -0.0564695 -0.046085864 -0.013368159 0.05559908 -0.056854576
-0.034402315 -0.053056497 -0.04820969 0.031328026 -0.018437754 -0.019598402 -0.033173066 -0.053969197
-0.054042045 0.0034327605 0.018035712 0.019713568 -0.03236947 -0.020819549 -0.03140536 0.02343276

user_tower.network.4.bias f4 [128]
00000000: f24c 393c 9f20 62bd a3dd 46bd 8245 72bd
00000010: 1d77 22bc c8fa 2abd cb40 5dbd ce58 b23c
00000020: 26bd 063d 5c18 f23b eb57 a53c 820e 573d
00000030: 2000 433c dcfd 373d 7839 3abd 3339 04bd
00000040: 1ab6 27bd c200 0b3d 6ce4 e8bc a9bb 5c3c
00000050: 08b4 61bd 78f3 6bbd e974 e4ba 60fa 013a
00000060: 5c47 9d3c b1e9 acba 2e9e 29bd 33e1 343c
00000070: a6a7 633d bc46 493d de40 65bb aed1 ad3c
00000080: 3c53 14bd cad2 3abd 2bca 26bd c9cc 22bd
00000090: e4e2 43bc eb7a d83c ccd9 1f3d 4fab 2ebd
000000a0: f739 57bd 5d96 00bb 2ef6 033c cc39 eb3c
000000b0: 118c 72bd 3288 a83c 5f87 42bd 7a3f 7cbd
000000c0: b32b 6ebc e80a 7bbd eece 533d c4da 0abd
000000d0: 6256 573d 9a4e 173d 33c6 0abd 654d 6d3d
000000e0: 6ed0 d53c fa0a 2ebd 8bd5 40bb 9487 18bd
000000f0: 5b22 14bd fe52 003c 22ea f53c e504 163b
00000100: 64f5 d33c 5fe4 bd3c 5e90 6d3d 5233 ddbc
00000110: 1fa2 cc3c cc94 7e3d 9fd7 4e3d 2fc0 a6bc
00000120: 14f5 70bd e735 083b 01e4 d6ba 9110 1f3d
00000130: 1726 e13c 6943 8cbc 9b6c 48bd 9227 223c
00000140: 0402 a4bb 5ce6 dcbc b7ea 75bd a904 0e3b
00000150: 10d1 5ebc 3033 a2bc 29de 54bc 55c0 c23c
00000160: 31b5 783d 6bc5 bc3c 8e83 193d 0675 77bb
00000170: db69 edbc 55f9 393a eb4f c03c 46a7 773a
00000180: 0b68 6c3c d9d4 023d b1b7 753d 6359 483d
00000190: 5303 09bd 0fc1 3abd b67a a33b c198 ddbc
000001a0: 9428 43bd 7b11 19bd 7970 4a3b 5b74 9238
000001b0: 7dd5 5d3c ba83 04bd 0d4b 16bd 0414 673d
000001c0: 9368 593c abea 25bd 6df4 9d3c d4f5 49bd
000001d0: 3281 633d 8a4d 703d fdfc 76bd 0bf0 2d3d
000001e0: f69d 20bd 7c9c c43c b608 efbc 12df 0dbd
000001f0: a5bb 94bc 267c 14bd fec9 c2bc 1fe5 2dbd
0.011309849 -0.05520689 -0.048551213 -0.05914832 -0.009916094 -0.04174307 -0.05401687 0.021770861
0.03289523 0.007388158 0.020183524 0.05250407 0.011901885 0.044919834 -0.045464963 -0.032281112
-0.04094515 0.03393627 -0.028429233 0.013472476 -0.05510333 -0.057605237 -0.0017429861 0.0004958268
0.019199066 -0.0013192204 -0.041410618 0.01104002 0.055579804 0.049139723 -0.003498129 0.021218147
-0.03621219 -0.04561118 -0.040720146 -0.03974608 -0.01195595 0.0264258 0.039026067 -0.04264384
-0.052545514 -0.0019620873 0.008054299 0.028714083 -0.05921561 0.020572755 -0.04749238 -0.061583973
-0.014536786 -0.061289698 0.051711015 -0.033900037 0.052572615 0.036940195 -0.033880424 0.057935137
0.026100364 -0.042490937 -0.0029424157 -0.037238672 -0.036165576 0.007832287 0.03001887 0.00228911
0.025873847 0.023180185 0.057999007 -0.02700201 0.02497965 0.062153623 0.0504986 -0.020355312
-0.058827475 0.0020784081 -0.0016394855 0.03883416 0.027483983 -0.017121987 -0.0489317 0.00989713
-0.005005123 -0.026965313 -0.060038295 0.0021670258 -0.013599649 -0.019799799 -0.01299242 0.023773352
0.060719673 0.023043355 0.037478976 -0.003775896 -0.02898114 0.00070943433 0.023475608 0.0009447228
0.014429103 0.03194127 0.059989635 0.04891337 -0.033450436 -0.04559427 0.0049889935 -0.027050378
-0.04764612 -0.037370186 0.0030889793 6.9834954e-05 0.013539669 -0.032352187 -0.036692668 0.056415573
0.013269561 -0.040507 0.01928159 -0.049306706 0.055543132 0.058667697 -0.060299862 0.04246525
-0.039213143 0.024000399 -0.029178958 -0.034636565 -0.018155882 -0.03625121 -0.023777958 -0.042454835

user_tower.network.5.weight f4 [128]
00000000: 7bc2 7f3f e87e 7f3f 90ff 7d3f 66ad 7f3f
00000010: f3a7 803f 8182 7f3f 3b71 803f 6962 803f
00000020: 37e6 7f3f 9936 7e3f 1af9 7d3f 9618 803f
00000030: 2719 803f c35c 803f 74c9 7f3f 36bf 7e3f
00000040: b6a5 7e3f b0b2 803f 112b 803f 779f 7f3f
00000050: 6c32 803f 17e9 803f dae2 7f3f 4fd1 803f
00000060: 4b48 803f 2314 7e3f 8bf4 803f 0687 7d3f
00000070: ee52 803f 1fd5 7f3f 0cae 803f dc3a 803f
00000080: fcf7 7c3f cd22 7f3f 4950 7e3f 08dc 803f
00000090: 627a 803f 658c 7f3f 74c3 803f eed4 803f
000000a0: 81ae 7f3f 7d85 803f 0790 813f 5c4f 7f3f
000000b0: ca88 7f3f 61c2 803f 55f9 7e3f c444 803f
000000c0: 7baf 803f 7c59 803f 86bb 803f abac 7e3f
000000d0: 266e 803f d0c8 803f 8e9f 7f3f 2398 7f3f
000000e0: 1b64 803f 5018 803f c359 7f3f d52b 803f
000000f0: 6fcc 7f3f da48 7f3f dd37 7e3f 4923 803f
00000100: d80f 803f 3498 7f3f d7f3 7e3f c307 803f
00000110: 723a 7e3f af47 7f3f de85 7d3f c731 803f
00000120: b2ef 803f 9bb7 7d3f 3293 803f 67d7 803f
00000130: 8f8b 803f 9dfa 7d3f cc45 7e3f f7ba 7e3f
00000140: 0c04 813f 76af 7d3f 816e 7f3f b24d 7f3f
00000150: 8657 7e3f aa9e 7f3f abe4 803f 01d8 7f3f
00000160: 2c07 7f3f 7205 803f 4222 813f f018 7f3f
00000170: 2e0c 803f 337c 803f 85c3 7f3f 1577 7d3f
00000180: 370a 803f 2538 803f 1ce7 7f3f a2a0 803f
00000190: 3aea 7f3f 31d2 7f3f f6c1 7e3f 4b01 803f
000001a0: a27d 7f3f c431 803f 366f 803f ed2a 7f3f
000001b0: a697 7f3f 89db 803f f968 803f e7ed 7f3f
000001c0: 33e9 803f 1dbc 803f 02a4 7e3f 169f 7f3f
000001d0: b8ea 7e3f 4679 803f bd0e 803f cb24 7f3f
000001e0: 61b2 803f edd0 7e3f 9e83 803f 9d2f 803f
000001f0: 8bdc 7e3f 9104 813f 21c9 7f3f 11b3 803f
0.9990613 0.9980302 0.9921808 0.9987396 1.0051254 0.9980851 1.0034555 1.0030032
0.99960655 0.9930206 0.99208224 1.0007503 1.0007676 1.0028309 0.9991677 0.99510515
0.99471605 1.0054531 1.0013143 0.998527 1.0015388 1.0071133 0.99955523 1.0063876
1.0022062 0.99249476 1.0074629 0.99034154 1.0025308 0.9993457 1.0053115 1.0017962
0.98815894 0.99662477 0.99341255 1.0067148 1.0037348 0.998236 1.0059648 1.0064981
0.99875647 1.0040737 1.0122079 0.9973047 0.998181 1.005932 0.995992 1.0020986
1.0053552 1.0027308 1.0057228 0.9948222 1.0033615 1.0061283 0.99852836 0.9984152
1.003055 1.000742 0.9974634 1.0013376 0.99921316 0.9972054 0.9930399 1.0010768
1.0004835 0.9984162 0.9959082 1.0002369 0.9930793 0.99718755 0.9903239 1.0015191
1.0073149 0.99108285 1.004492 1.0065736 1.004259 0.9921053 0.9932525 0.99504036
1.007936 0.9909586 0.9977799 0.9972793 0.993523 0.9985148 1.0069784 0.9993897
0.9962032 1.0001662 1.008858 0.99647427 1.0003717 1.0037903 0.99907714 0.9900983
1.0003117 1.0017134 0.9996202 1.0049021 0.99966776 0.999301 0.9951471 1.0000395
0.99801075 1.0015187 1.0033939 0.99674875 0.9984077 1.0066997 1.0032035 0.99972385
1.0071167 1.0057408 0.99469006 0.9985212 0.995769 1.003701 1.0004498 0.99665517
1.0054437 0.99537545 1.0040166 1.001453 0.9955527 1.0079519 0.99916273 1.0054647
