models/retrieval/saved/two_tower_model.pt (torch, 945843 bytes, 28 tensors)

user_tower.network.0.weight f4 [256, 256]
00000000: fa25 9e3c 3680 c43b 6908 de3b 975a 423d
00000010: c6c3 203d aba3 debc 97bd 58bd a29a 143d
00000020: d0fb 753d f6d4 5e3d 645a 313c d34a 1f3d
00000030: ddbb a0bb 6b23 febc 0ab1 0a3d efab 5fbd
00000040: 5bb4 263d 9c2b 28bd 285f eb3c 3ea3 013c
00000050: 2bee 033d 2202 c9bc 18f1 87bd 20d1 8bbc
00000060: 44de 843b 2c8b f83c 5523 76bb 2d17 0e3d
00000070: cdcb 30bd 3601 533c 9fed 3abc 9d44 a83a
00000080: 077e 4d3c 71eb 13bd 0400 4cbd b712 5dbd
00000090: d69f 473c 56d7 573d 60dc 5bbc 8502 ed3c
000000a0: ab9b 643d ee0f 493d c4d0 dcbc 09c8 2d3d
000000b0: b2df e3bb 907a 06bd a468 a23c bec6 d2bc
000000c0: f021 363d 8f61 54bd 2ffb 103d 3220 213d
000000d0: 51cf 423d 073b 42bd 810e 5f3c 953b 343d
000000e0: d0e9 cbbc c08e a2bc 2738 803c 8303 19bd
000000f0: 445d 3ebd ab98 b0bc 4af7 513d 8977 dc3b
00000100: a381 c6bc b2c7 09bd cf0c 8e3c b74f 85bd
00000110: 60b8 58bb 609c 5a3c 583b 043d 8704 e53c
00000120: e956 3d3c 265c 6f3d 9463 263d 68da 493c
00000130: 4162 df3c 13a9 c03c 0048 febc 86e4 e8bb
00000140: 5570 b93c 759f c4bc 5034 a1bc b229 4abc
00000150: 3951 793d bd88 86bc 3761 66bd edd9 293c
00000160: b6d1 82bd 01fd b2bc cc3c 1cbc db00 3fbd
00000170: 47cd a9bc 3781 783d 70db 1d3d 0243 edbc
00000180: 7a45 5bbd bb3a 4c3d 51e7 fb3c c7ce 69bd
00000190: 5f1d 343d e12d 293d dc82 bbbc 497a 413d
000001a0: 2428 5e3d fe5f 1abd b40b d73b 57d9 44bd
000001b0: b6a6 5bbd 9947 563d 7a27 3abd 1aec 323d
000001c0: 5de8 c8bc d410 513d fb95 4d3d 6918 60bd
000001d0: ad2f 81bd bbc3 4fbd d0a0 86bc fda1 e8bc
000001e0: c17d 213d 4dac 5bbd d819 da3c 231e fc3c
000001f0: 2272 473d fe1e 953c 1b3f 8e3c 30a7 15bd
00000200: 2b0e 4cbd 8ce8 643d 4ebe 66bd d26a 4b3d
00000210: 23f9 0ebc 96e9 0c3d 793a 8b3d bf19 863d
00000220: 775e e63b 1116 85bc 6d51 853d 9055 0ebd
00000230: 9a3e c2bc 5edd a4bc d725 123d 69cc 3dbd
00000240: 040d 44bd 53cb 1a3c 0e50 363d 6e44 843c
00000250: 1c79 4ebd bf66 25bd de37 3c3d 4fc6 60bd
00000260: 1f72 d43c dbc0 af3b 1b71 c0bc 5472 60bd
00000270: b986 b8bc 6c54 86bc 099c 3d3c 1b7c 32bd
00000280: 47af 6fbd b3e1 243d 0aa6 643d a468 da3c
00000290: 5c4b 4e3b d2da 61bd f4b0 873c 1f1d 64bd
000002a0: 1db6 433d 4a1b 49bd 6553 343d e0ba 0ebd
000002b0: 80ac 3e3d 21ef 4ebb b832 84bc e290 babb
000002c0: 7dfc 7e3c e28a 223b 9f0b 0ebd 797e 82bd
000002d0: 76b6 a8bc b730 4f3c 4256 be3c 0d12 a33c
000002e0: 1c7e 493d 827e c2bc a9f0 1f3c edbf 7ebd
000002f0: 62ab ffbc f3d3 2dbd 9f5a 0c3d f5b0 93bc
00000300: ffbe 1cbd d2e1 c43c 06af 743c 666f bebc
00000310: c16a bc3c f40b b73c 6231 f83c ce2f 3dbd
00000320: 7951 043d 0ac0 d43c d4fa 8c3c 24f4 a23c
00000330: 2566 56bd c2b9 61bd f1a2 173d 771f 31bc
00000340: facf a63c 6244 113d a66c 5ebd 5921 11bd
00000350: 241f c13c 09d1 37bd 91ef 993c d554 743d
00000360: ab33 22bd 480b fe3c 4d6c 6dbd 050f 413d
00000370: fb8e 5dbc 9013 783d 5a76 c73b b1fc 69bd
00000380: 863a 1b3d e17f c9bb cdd2 0d3c 6b82 53bd
00000390: 68ca e5bc e949 48bc 596b 25bd 28a1 ecbc
000003a0: d69e 7b3d f578 27bd bf39 063d e946 d5bc
000003b0: 478c 4bbd ee76 10bd fb34 babc 0d6c be39
000003c0: 4c8d aabc 02e7 d53c 0b92 ff3c 2dfb 3ebd
000003d0: 18bc a6bb cd8d 1c3d cb6f 513b b334 6bbd
000003e0: 8afc f73c c76d 71bd 29da b63c 8ad0 1ebd
000003f0: 0bad 87bb b52e a43c 17fe 96bc fda2 2dbd
0.019305218 0.0059967292 0.006775905 0.047449674 0.039249204 -0.027177652 -0.052915182 0.03628028
0.0600546 0.054402314 0.010824773 0.038889717 -0.0049052075 -0.031022748 0.033860244 -0.054607328
0.040699344 -0.041057214 0.028731897 0.007912455 0.032209557 -0.02453715 -0.06637782 -0.017067492
0.0040548164 0.0303398 -0.003755768 0.03469007 -0.04316311 0.012878707 -0.011409192 0.0012837831
0.012542254 -0.036113206 -0.049804702 -0.053972926 0.012184104 0.052695595 -0.013419241 0.028931865
0.05581252 0.049087457 -0.026955016 0.042427097 -0.006954157 -0.03283173 0.019825287 -0.025729533
0.04446596 -0.05185085 0.035395797 0.039337344 0.047560994 -0.047419574 0.013614298 0.044002134
-0.024891764 -0.01984346 0.015651776 -0.037356865 -0.046475664 -0.021557173 0.051261224 0.006728117
-0.024231737 -0.03363771 0.017340092 -0.06509345 -0.003306888 0.013342947 0.032283157 0.02795626
0.0115563655 0.05843749 0.04062231 0.0123201385 0.02726853 0.02351812 -0.031040192 -0.0071073202
0.022636572 -0.024001816 -0.019678265 -0.0123390425 0.060868476 -0.016422624 -0.056245055 0.010366899
-0.063876554 -0.021849157 -0.0095359795 -0.046631675 -0.020727767 0.060670104 0.03853935 -0.028962616
-0.053533055 0.049860697 0.030749949 -0.057081964 0.043973323 0.04130352 -0.022889547 0.04723576
0.0542375 -0.0376892 0.0065626744 -0.048058834 -0.053625785 0.052314375 -0.045447804 0.043682195
-0.024524862 0.05104144 0.05019186 -0.05471078 -0.063079216 -0.050723772 -0.016434103 -0.028397555
0.03942657 -0.053631116 0.026623651 0.030776089 0.04869283 0.018203255 0.017364075 -0.036536396
-0.0498182 0.055885836 -0.056333832 0.04966242 -0.008726391 0.034402452 0.06798262 0.065478794
0.007030304 -0.016245874 0.06509671 -0.034749568 -0.023711491 -0.020125087 0.035680618 -0.04633752
-0.047863975 0.00944789 0.04450994 0.016145911 -0.050408468 -0.04038119 0.045951717 -0.05487662
0.025933323 0.0053635663 -0.023491433 -0.05479653 -0.022525178 -0.016397677 0.011572846 -0.043575387
-0.058516767 0.040254306 0.05582241 0.026661225 0.0031478023 -0.055140324 0.01656387 -0.055691835
0.0477811 -0.04909829 0.044024844 -0.034846187 0.046551228 -0.0031575637 -0.016137466 -0.005693541
0.015563128 0.002480202 -0.03467905 -0.06371779 -0.020594817 0.012645892 0.02323449 0.019906068
0.049192533 -0.023741964 0.009761968 -0.062194753 -0.031209651 -0.04243846 0.03426611 -0.018028716
-0.038268086 0.02403346 0.014934307 -0.023246478 0.023000123 0.022344567 0.030296985 -0.04618817
0.03230426 0.025970478 0.017209448 0.019891806 -0.052343506 -0.055108793 0.037020627 -0.010810724
0.020362843 0.035465606 -0.054302834 -0.035432193 0.02357442 -0.044877086 0.018790992 0.059651215
-0.039600056 0.031011239 -0.05796461 0.047133464 -0.013522859 0.06056553 0.0060871067 -0.05712575
0.03789761 -0.0061492776 0.008656216 -0.05163805 -0.028050616 -0.012224653 -0.040385578 -0.028885439
0.061430775 -0.040886838 0.032769915 -0.02603479 -0.049694326 -0.03526967 -0.022730341 0.00036320128
-0.020819329 0.02611113 0.031197568 -0.04662626 -0.0050883405 0.03822117 0.0031957503 -0.057423305
0.030271787 -0.058942582 0.022320824 -0.038773097 -0.0041405014 0.020041803 -0.018431706 -0.042391766

user_tower.network.0.bias f4 [256]
00000000: 4f93 debc 292e 8f3c 1a6e 8f3b ec65 bcbb
00000010: 9223 34bc d37a cbbc 169b 4d3c b189 7b3b
00000020: 0931 77bd a076 4f3d 093f 563d 0049 b9ba
00000030: 60ce 843d cd89 583c d53c 413d e914 ba3c
00000040: cebe 923c 99bf 8cbc 71e7 49bd 9207 79bc
00000050: f919 073d 64cb e93c 4231 6a3d 4cb8 47bd
00000060: 022b 0cbd 6ce4 09bc e369 413d 2eaa 8f3b
00000070: 250f 47bd 9b46 d63c 098a dcbc f84f 0f3d
00000080: 4bd3 793c 18d3 63bd 55dc c0bc f15e f4bc
00000090: 7102 65ba 3ae4 f13c e8bd 883c 07a7 2bbd
000000a0: d337 1bbd 5479 053d c4ee af3c de88 a83c
000000b0: fd4b 87bd 8ffa b6bc 3579 803d e710 11bb
000000c0: d4b8 a5bc 57f5 5abc 771a 2bbd 3ccb 463d
000000d0: e663 20bd 1356 c4bc acdf ee3c 7084 0f3d
000000e0: 8105 763c 9843 103d bc91 2bbd bb2b 40bc
000000f0: 26ba bd3c 7230 503d 0bca 3b3d 0360 bbba
00000100: eb5a 46bd 647e 143d 2340 2d3d 34ff 2abc
00000110: 346f 883d 1424 713d adc2 94bb 7966 38bc
00000120: 5cf3 59bd c02d 923d a314 fb3b fcbf 99bc
00000130: 2add 0f3b 7626 6f3d 1ab4 73bd 9245 7abd
00000140: 18d9 70bd b3f3 18bd f714 823d 0c8f 67bd
00000150: 5451 0b3d 4e6a 523b 37f3 bd3c 518a 5a3d
00000160: 9278 e03c 6b34 b73c c5f1 67bd 347d a13b
00000170: 6cf0 24bd 4977 b8bb 0e45 0e3c bc3c 523d
00000180: 3ffa 4a3d bd32 093d 76b9 e7bc 187c 223d
00000190: 410b 2c3d 0265 023d d6de 32bd 1242 5fbc
000001a0: 068f 2f3a 1e33 e43b 895d 613d d64c 99bc
000001b0: 73e7 1cbd 2f85 2fbc bb7a 683c dab6 11bd
000001c0: 4c51 b4bc d5a7 c3bc 57bb 57bc 7a1d 55bd
000001d0: a908 19bd 0eff 20bd 9f1c 5e3d d061 623d
000001e0: e4ad 743d 7220 e23c 254d 75bd 0238 febc
000001f0: a9bd 663d a641 e7bc dab9 89bb aa0c 613c
00000200: ac65 473d 55ce d83c 4df1 e7bc 8fbf f93c
00000210: f0c2 52bd 6b6e c33b 3879 3e3d d689 063d
00000220: c19e e4bc 45e0 00bd 5ac6 373c 3e91 f63a
00000230: 97d1 133d 1f15 a6bc 1db7 78b9 0dfd 5c3c
00000240: ecb6 13bb a1a5 7db9 6ca2 463d c31a 03bd
00000250: 9b4e 493a 7d12 2a3d f423 063d ccfe 903c
00000260: 9c23 9dbb be3f 463d 8f3d 32bd 96fd da3c
00000270: e48c 583d 640b 183d 647f e3bc cc65 01bd
00000280: 3583 0bbd 75d3 2bbc 3eff 353a 6b51 8cbd
00000290: 23d9 dbbc 8812 df3a f2d6 823d e5e2 363d
000002a0: 980d 23bd 8e99 2f3c cae9 4a3d 0972 6e3d
000002b0: 73c7 0b3d 2560 e33c 31ab 3c3c 47aa efbc
000002c0: b0c0 a73c 8727 5b3c 4ffa 8d3c b9a3 b03c
000002d0: 20ab b8bc eea8 afbc 9873 bc3c 3959 223d
000002e0: a0b9 14bc da6e 253c b71d 74bd 1f18 5f3d
000002f0: 53a7 3f3d bd51 35bd 8c83 733b 042a fb3c
00000300: 5f1f a03c eb65 e7bb 9ed6 d6bc 5fb5 833d
00000310: 1613 fc3c fb0a f3bc 1de7 bebb 5eaf 96bc
00000320: 0537 593d 2893 1b3c 36e8 72bd c98d 81bc
00000330: 19cd 24bd 4818 783d b4f9 fdbc 88f3 753d
00000340: a141 743d a74c 09bd ee01 b7bc 6c1a f1bc
00000350: 5c95 ef3c 57aa 2a3d 75cf 603d 28b9 a23c
00000360: 5747 7b38 7bc7 283d 8493 1c3c 94cb c8bb
00000370: fe42 6ebc 769d ab3b afcd b4bc 2515 4bbd
00000380: 776d 95bb 633c ebbc cde7 a03a ddbd 44bd
00000390: 4567 663d ef7d 973c a14e 43bd 3332 6c3d
000003a0: 7416 383d fa75 2b3d 4561 81bd 3dbc efba
000003b0: ae81 243d 90fc df39 12ec b6bc 9125 be3c
000003c0: 99ff 403d dd0d f03c f7ca 5abd 7fa5 4ebc
000003d0: 1415 1dbd ef73 903c b313 303d f330 1dbd
000003e0: facf 473d 76b5 41bc db7e cbbb 11f9 2c3d
000003f0: 91aa 40bd 918e 89bd 3546 e23c 28e3 6ebd
-0.027169852 0.017478066 0.004377139 -0.0057494547 -0.010994809 -0.02483884 0.012549182 0.003838163
-0.060349498 0.05065024 0.05230621 -0.0014136136 0.064846754 0.013216448 0.047177155 0.022715049
0.017913248 -0.017181205 -0.049292985 -0.015199559 0.032983754 0.028539367 0.057175882 -0.048759744
-0.034220703 -0.008416276 0.047220122 0.0043843007 -0.048598427 0.026156714 -0.026921289 0.034988374
0.01524813 -0.055621237 -0.023542562 -0.029830428 -0.00087360205 0.029527772 0.016692117 -0.041907337
-0.037895035 0.03258641 0.021476157 0.020573076 -0.066062905 -0.022336273 0.062731184 -0.0022135319
-0.020229734 -0.013364158 -0.041773286 0.048533663 -0.03915777 -0.023966825 0.02915939 0.03503841
0.015015961 0.035220712 -0.04188703 -0.011729176 0.023160052 0.05082745 0.04584698 -0.0014295581
-0.04842655 0.036253348 0.042297494 -0.010436822 0.06661835 0.058872297 -0.0045398087 -0.0112549
-0.0532106 0.07137632 0.007662372 -0.018768303 0.0021951892 0.05838629 -0.05949793 -0.061101504
-0.058800787 -0.037341785 0.06351655 -0.056532905 0.034013107 0.003210682 0.023187263 0.053354565
0.027401242 0.022363862 -0.056627054 0.0049282555 -0.040268347 -0.0056294543 0.008683456 0.051327452
0.04955506 0.033495653 -0.028286677 0.039669126 0.04200292 0.03183461 -0.043669544 -0.013626592
0.00066970324 0.0069641015 0.055020843 -0.018713396 -0.038306665 -0.010712906 0.0141894175 -0.03557477
-0.022011422 -0.02388374 -0.013167224 -0.052030064 -0.037361775 -0.03930574 0.054226514 0.055269063
0.059736148 0.027603362 -0.059888024 -0.031032566 0.056333218 -0.028229546 -0.0042030634 0.0137359295
0.048680946 0.026465574 -0.028313303 0.03048685 -0.051455438 0.0059640906 0.046502322 0.032846294
-0.027907731 -0.03146388 0.011216724 0.0018811596 0.036088552 -0.020273743 -0.00023719338 0.013488066
-0.002253945 -0.00024189662 0.04849474 -0.032007944 0.00076792546 0.041521538 0.03274913 0.017699622
-0.0047955047 0.048400633 -0.043515738 0.026732247 0.05286874 0.037120238 -0.027770706 -0.03159122
-0.034060676 -0.010487427 0.0006942636 -0.06851467 -0.026836937 0.0017019073 0.06388654 0.044649977
-0.039807886 0.010717763 0.049539365 0.05821422 0.034125756 0.027755806 0.011515425 -0.029256
0.020477623 0.013376123 0.01733127 0.021562444 -0.022542536 -0.021442857 0.023004338 0.03963587
-0.00907746 0.01009723 -0.05959865 0.054466363 0.046790432 -0.044267405 0.0037157265 0.030659683
0.019546209 -0.00706171 -0.026225384 0.06431078 0.03077082 -0.029668322 -0.0058258907 -0.018394168
0.053030986 0.009495534 -0.059303485 -0.015814679 -0.04023466 0.06057003 -0.031002857 0.060046703
0.0596329 -0.033520367 -0.022339787 -0.029431544 0.029246025 0.041666355 0.054885346 0.01986368
5.9909504e-05 0.041205864 0.009556655 -0.006127784 -0.014542339 0.0052372767 -0.022070734 -0.049580712
-0.0045601684 -0.028715318 0.0012276113 -0.04803263 0.05625083 0.018492667 -0.04768241 0.05766506
0.044943288 0.041860558 -0.06317381 -0.0018290352 0.040162735 0.00042722048 -0.022329364 0.023211272
0.047118757 0.029303486 -0.05341622 -0.0126126995 -0.03835018 0.017633406 0.042987537 -0.03837676
0.048782326 -0.011823049 -0.0062101907 0.042229716 -0.047037665 -0.067166455 0.027621368 -0.0583221

user_tower.network.1.weight f4 [256]
00000000: 79a0 7f3f 83b6 7e3f e2a3 803f a80c 813f
00000010: d756 7f3f 6be2 803f 732d 7f3f 74e3 7e3f
00000020: 0a41 7d3f d753 803f 5d16 7f3f 5fbb 803f
00000030: 42f1 803f 6a77 7e3f fc2a 803f 4e79 803f
00000040: 594f 7f3f a38c 803f 1a21 7f3f 81eb 7e3f
00000050: 65df 7d3f 6a19 813f 5d8b 7e3f feb0 803f
00000060: 9161 7f3f 2c3c 803f d2ba 7f3f 7694 803f
00000070: 0ba1 813f 2a77 803f 0c45 803f d851 813f
00000080: 268f 803f cd9d 7e3f eb40 7e3f b669 7e3f
00000090: b5f9 7f3f 7637 813f 0367 7e3f 2761 803f
000000a0: cf35 803f 3bbb 803f d8ec 803f 82bd 7f3f
000000b0: 1560 7e3f 56ba 803f a550 803f d718 803f
000000c0: 82af 7d3f 63b6 803f d668 813f 2d5e 7e3f
000000d0: 9a61 813f f80e 803f 6bfc 7e3f 1b56 7d3f
000000e0: 44ff 803f 19fa 7e3f c5d5 803f c239 803f
000000f0: 4e73 7e3f 74b3 7e3f 0182 7f3f d53f 803f
00000100: 5222 813f 9037 803f f9a4 7e3f 9f8b 7e3f
00000110: 485e 803f 4c42 803f c233 7d3f 7685 7d3f
00000120: 7f6a 7e3f a28c 803f 11cf 7f3f fde1 7e3f
00000130: cb02 7f3f 6b5f 7d3f f719 7e3f 3ad4 7f3f
00000140: 322c 7f3f e7bb 803f bd13 7f3f 1e13 7e3f
00000150: 7464 803f 63bd 7f3f 3df1 7e3f 29c2 7f3f
00000160: 8958 803f a6ee 803f 2b68 813f 8fc4 7e3f
00000170: 1f13 7e3f 303d 7f3f 06e8 7f3f 3e05 813f
00000180: 8ae4 7f3f 4540 803f ca69 803f 6d6a 7f3f
00000190: 070a 813f b0a4 7c3f eeda 803f 5a27 7e3f
000001a0: 010c 803f cdc7 7f3f a62f 7e3f b251 803f
000001b0: aa22 813f 8a6e 803f a5e9 803f 8bfc 7f3f
000001c0: d958 7e3f 19a3 803f 7f55 803f 03b5 7f3f
000001d0: aa7f 7f3f dc07 803f 5af3 7f3f 77df 7e3f
000001e0: 77c3 7f3f 9f31 803f 3271 803f fbe5 7d3f
000001f0: 1a86 7f3f 67ec 7d3f 4b23 813f f6b6 7d3f
00000200: 8455 7d3f 0956 7e3f 6175 803f 0f47 7e3f
00000210: 039c 803f f9f5 7d3f ebe9 7d3f a899 7f3f
00000220: 9bd3 803f 2b29 803f c0c6 7c3f c543 803f
00000230: 38b3 7d3f 31ef 7f3f 4cb4 803f 2753 7e3f
00000240: ff1b 7e3f 7f6c 7c3f 408a 803f 6844 803f
00000250: 1b88 7e3f 14c1 7f3f afe2 7e3f 5e12 7e3f
00000260: 73ea 803f edc3 803f c740 7e3f 6ec9 7f3f
00000270: c229 813f 4011 803f 8b4a 803f 92c5 7d3f
00000280: d7ca 7e3f f4ca 803f 6be6 7e3f 467c 803f
00000290: ff96 7e3f 70f4 803f 85ff 7d3f 1e48 803f
000002a0: afe3 7f3f d4b6 7d3f 3470 7f3f 7601 803f
000002b0: c1e2 7e3f e39b 7e3f a2f0 7f3f 2946 803f
000002c0: f916 803f 53dc 7f3f 697d 7e3f 0a95 803f
000002d0: 19a3 7d3f 08b6 803f f1eb 803f 2e96 7e3f
000002e0: 5a94 803f 80cc 803f e7ac 7f3f d962 7e3f
000002f0: 6b4b 803f 176d 803f 9b83 7f3f 2a8f 7f3f
00000300: c8d4 803f e665 813f 26f4 7e3f 85c3 7f3f
00000310: f9a9 7f3f 3bef 803f 853c 803f b6b7 803f
00000320: 0ec6 7d3f db4a 803f 139e 7f3f e7c3 7e3f
00000330: f05f 7f3f e540 813f 21be 7d3f dbac 803f
00000340: 74a0 803f 98b4 803f 1fbc 7e3f 8acd 7e3f
00000350: 7c75 803f 8e7c 7f3f a369 803f 9605 7f3f
00000360: 02fa 7d3f 001f 803f be0c 813f 373b 7f3f
00000370: c98f 7e3f 6d7b 803f d24e 7f3f ec2c 803f
00000380: 948e 7f3f 702d 7d3f 665b 803f 8951 7c3f
00000390: 813b 813f ca7d 803f bd99 7f3f f432 803f
000003a0: 0859 813f 51d2 7e3f 0b5f 803f 08ec 803f
000003b0: f4ed 7f3f 702c 803f 3522 813f 1e85 803f
000003c0: bf6b 803f 6bb2 7f3f b84e 803f e03f 803f
000003d0: 169a 803f 0ec5 803f 13c8 803f 2301 803f
000003e0: 3fab 813f 8586 813f bd0c 803f c960 7e3f
000003f0: 8134 803f b3b4 803f 5bac 803f 5307 803f
0.99854237 0.9949724 1.0050013 1.0081987 0.9974188 1.0069097 0.99678725 0.99565816
0.98927367 1.0025586 0.996435 1.0057181 1.0073626 0.9940096 1.0013118 1.0037019
0.9973045 1.0042919 0.99659884 0.995781 0.99169 1.0085881 0.994314 1.0054014
0.9975825 1.0018363 0.9989444 1.0045307 1.0127271 1.0036366 1.0021071 1.0103102
1.0043685 0.99459535 0.99317807 0.9938005 0.999904 1.009505 0.99375933 1.0029649
1.0016421 1.0057138 1.0072279 0.9989854 0.9936536 1.0056865 1.0024611 1.000758
0.9909593 1.005566 1.0110118 0.9936245 1.0107911 1.0004568 0.9960391 0.9895951
1.0077901 0.9960037 1.0065237 1.0017626 0.9939469 0.99492574 0.99807745 1.001948
1.0088599 1.0016956 0.9947048 0.99431795 1.0028772 1.0020232 0.989071 0.9903177
0.9938125 1.0042918 0.99925333 0.9956358 0.99613637 0.9897372 0.9925837 0.9993321
0.9967681 1.0057343 0.99639493 0.9924792 1.0030656 0.99898356 0.9958685 0.9990564
1.0027019 1.007283 1.0109915 0.99518675 0.99247926 0.9970274 0.99963415 1.0079725
0.999581 1.0019614 1.0032284 0.9977177 1.0081185 0.98688793 1.0066812 0.99278796
1.0003663 0.99914247 0.99291456 1.0024931 1.0088704 1.0033734 1.0071303 0.99994725
0.9935432 1.0049773 1.0026091 0.99885577 0.99804175 1.0002398 0.999807 0.9955973
0.9990763 1.0015143 1.0034544 0.9917905 0.99814 0.99188846 1.0088896 0.991073
0.9895861 0.9935003 1.0035821 0.99327177 1.0047611 0.9920345 0.99185055 0.99843836
1.0064577 1.0012563 0.9874077 1.0020682 0.9910159 0.9997435 1.0055022 0.9934563
0.9926147 0.9860305 1.004219 1.0020876 0.9942643 0.9990399 0.9956464 0.99246776
1.0071548 1.0059792 0.9931759 0.9991673 1.0090868 1.0005264 1.0022749 0.99129593
0.9952826 1.0061936 0.9957034 1.0037925 0.9944915 1.0074596 0.99218017 1.0022008
0.9995679 0.991071 0.99780583 1.0000446 0.9956475 0.99456614 0.9997655 1.0021411
1.0007011 0.99945563 0.9941011 1.0045483 0.9907699 1.0055552 1.0072004 0.99447906
1.0045273 1.0062408 0.99873203 0.9936958 1.0023016 1.0033292 0.9981019 0.99827826
1.0064936 1.0109222 0.9959129 0.99907714 0.9986873 1.0073007 1.0018469 1.0056064
0.9913033 1.0022844 0.9985058 0.99517673 0.99755764 1.0097929 0.9911824 1.0052751
1.0048966 1.0055113 0.995058 0.9953238 1.0035853 0.9979943 1.0032238 0.996179
0.99209607 1.000946 1.0082014 0.9969973 0.9943815 1.0037667 0.99729645 1.0013709
0.9982693 0.9889746 1.0027893 0.9856191 1.0096284 1.0038388 0.9984396 1.001555
1.0105295 0.9953967 1.0029005 1.0072031 0.9997246 1.0013561 1.0088564 1.0040624
1.0032881 0.9988162 1.0024023 1.0019493 1.0047023 1.0060136 1.0061058 1.0000347
1.0130385 1.0119177 1.0003887 0.9936643 1.0016023 1.0055145 1.0052599 1.0002235

user_tower.network.1.bias f4 [256]
00000000: e1b8 513b 1c76 d2bb ebe9 793b f827 5a3b
00000010: bf7f a23a 2cdd 5b3c b33a 1e3a 71ce 05bc
00000020: e6c4 e8bb 410b 8cbb e043 9438 7533 213c
00000030: 7035 303c 4d50 e5bb 0ed5 213c d1ad 46ba
00000040: 50cd 8aba 071a 1d3b 1c4e 8f3b 98eb b0bb
00000050: e58e 0cbc 6885 e23b c8f6 e7ba 9c37 643b
00000060: fa68 d8ba 4ee7 9dbb be54 a73b c293 19b8
00000070: 1267 033c 0518 3fbb afe3 6a3a ea2a b13b
00000080: d59a 0d3c efd4 12ba 2271 f8bb 6398 1dbb
00000090: e75e daba 58f5 263c 5dbf 39bb 1249 e6b9
000000a0: 0d60 2fbb 58e7 aa38 1c1f f93b c999 04bb
000000b0: b8d4 2dbc 582d 083c fa9b 993b ccd2 4f3b
000000c0: 05c2 4abc d5e1 0f3c d3a1 2e3c d337 cabb
000000d0: 9034 6b3c 526b b238 b101 0bbb 08f4 22bc
000000e0: 18fb bb3b 488c 11ba 5dab 2f3c 94ca 253b
000000f0: b6bf d0bb 78a5 9d3a 496c a4bb 487b 35ba
00000100: f4ab d23b 0682 993b be45 e4bb 4466 a4bb
00000110: 3faf 563b 3db5 933b 82d1 f7bb 4f59 29bc
00000120: fe7c 1ebc 1266 b03b d180 a2bb 6d1a 6aba
00000130: aeb9 97b9 5b83 2dbc 0773 e03a ffd9 83bb
00000140: eded 69bb e64a 723b 0b57 32bc fff1 e1bb
00000150: 38de 573b c5f5 23bc 18f8 dbb9 d398 b93a
00000160: 61bd 9c3b b9b4 133c c1c1 263c f04d 9d39
00000170: 3d18 c7bb 6aee 0abc 52c9 45bb 7260 263c
00000180: a425 ea38 57cb 1c3c b621 533b b4fb 323b
00000190: 8307 6a3b 81fe 413a 9dc8 27bb 3ef9 41bc
000001a0: dbea 933a 8866 c6bb 9c28 3dbc a8b4 7fbb
000001b0: a653 8fba 0c7c 7b3b 3ed8 c43a 2c48 b83b
000001c0: d5d8 8bbb 1982 2e3b 8e19 bc3b f02b bf3a
000001d0: 7b9e cebb b802 2839 9691 af3b 17b6 60bb
000001e0: 9822 d9b9 0f3e c53b 09ef cdbb f7f0 02bb
000001f0: 6f84 4bbb 514c aabb 5e52 dbb8 6ac6 dbbb
00000200: ccf1 54bc ccbd e7bb a1c3 e7b9 3a7b 96bb
00000210: 606d fc3b 1fd8 f6bb 525c 07bc 3ccb e3ba
00000220: 2064 c13a fefd 8dbb 228e 3fbc 1bc3 3e3b
00000230: 500f f4ba 4fc8 c637 3888 aa3b c4b2 f5bb
00000240: 2110 f6bb a67e 11bc 7a3f 42bb a312 6bba
00000250: af80 e3bb 5c5b 053b 8f2e 48bc 563b 03bc
00000260: 61fe f63b 0d9f 1bbc 4705 0bbc 8237 5e3b
00000270: 43b2 2d3b eb33 50b9 2511 033b d280 26bc
00000280: 14af 19bc 1aba a23b 26a4 613a 9a33 bd3b
00000290: 8dee 553a ca6d 033c 54cb 5bbb 91c4 923b
000002a0: 5b56 db3a eabf 48bb d87c a8bb 888c 29ba
000002b0: 9f19 b7ba 5845 3bbb b18a c83a 0920 eeb9
000002c0: bb52 783a 6d4a b2bb 606f d3bb f4b8 8a3a
000002d0: db6d 96bb 050e 263b 07e3 793b d991 78bc
000002e0: b66d 0a3c d354 9c3b a5c4 3f3a bec2 36bb
000002f0: e969 ea3b 8ea3 ec3b 97ea b2bb 3cd3 6d3b
00000300: 8099 c93a f29b 0bbb c5a9 7e3b ba7c 4e3b
00000310: c41c a93a 71b1 42ba df9c c1bb b0bd 9e3b
00000320: 4b62 0ebc 8cc8 243b f4fd d0ba a8d0 cbbb
00000330: 2e46 4e3b dd51 323c a218 17bc 9ddc 9c39
00000340: 3be1 213c 4074 bbba 3fe4 4bbb 47a2 823b
00000350: 2186 8abb 0715 56bb fac3 043a 2b56 bb39
00000360: d955 07bc 95b1 a1bb 6bb4 f93b 8712 02bc
00000370: 2cab 14bc 6f51 0e3c e769 38bb a5af ed3b
00000380: eeb9 fa39 d994 36bc 12d5 33b9 e6d3 20bc
00000390: 657d ec3b c21e 143b 3ce0 a7ba 6a55 bbbb
000003a0: 682b e73b e45d 2e3b 15d3 693a cde8 403c
000003b0: 6c2c 6a3a 158a 3d3b 7fb6 8d3b 74a3 db3b
000003c0: 1645 cf3b 9dc2 c7bb d25b ab39 d2f3 13bb
000003d0: b553 753b 9b61 223c 6531 2f3c 39e0 2fbb
000003e0: 47f9 5b3c 898d 233c 515a fa3b c781 92bb
000003f0: 9b1c 8a3a e0d1 0a3c 147f e03b 90aa 01bb
0.0032001066 -0.006422771 0.003813381 0.0033287983 0.001239769 0.013419431 0.00060359685 -0.008166895
-0.0071035502 -0.0042738025 7.069833e-05 0.0098389285 0.010754928 -0.006998098 0.009877456 -0.0007579001
-0.0010589752 0.0023971812 0.004373325 -0.0053991787 -0.008578991 0.006912876 -0.0017697448 0.0034823185
-0.0016510778 -0.0048188334 0.0051065376 -3.6615653e-05 0.008020179 -0.0029158604 0.0008960319 0.005406727
0.008642872 -0.00056011876 -0.007581846 -0.0024047128 -0.0016660363 0.01019033 -0.0028342821 -0.0004392346
-0.0026760132 8.149323e-05 0.0076025855 -0.0020233265 -0.010609798 0.008311592 0.0046877833 0.0031711338
-0.012375359 0.00878187 0.010658699 -0.0061712055 0.014355794 8.5076914e-05 -0.0021210725 -0.009945877
0.00573672 -0.00055522146 0.0107220085 0.0025297748 -0.00637051 0.0012027463 -0.0050177914 -0.00069229724
0.00642919 0.0046846895 -0.0069663217 -0.005017074 0.0032758263 0.0045076893 -0.007562817 -0.010336234
-0.009673355 0.0053832615 -0.004959204 -0.00089303293 -0.00028939307 -0.0105904 0.0017124125 -0.00402379
-0.0035694793 0.0036970912 -0.0108850105 -0.0068953033 0.003293885 -0.0100073265 -0.0004195578 0.0014159925
0.004783318 0.009015256 0.0101780305 0.00030003441 -0.0060758875 -0.008479694 -0.003017981 0.01015483
0.000111650006 0.009569964 0.0032216138 0.0027310671 0.0035710044 0.000740029 -0.0025601753 -0.011839209
0.0011285202 -0.006054703 -0.011545327 -0.0039017592 -0.0010934963 0.0038373498 0.0015018058 0.005623838
-0.0042677918 0.0026627837 0.005740351 0.0014585238 -0.0063055134 0.00016022741 0.0053579314 -0.0034288222
-0.0004141524 0.006019361 -0.0062845987 -0.0019980052 -0.0031054278 -0.005197086 -0.00010458076 -0.0067070024
-0.012997102 -0.007072186 -0.00044205508 -0.0045923265 0.007703468 -0.007533088 -0.008261757 -0.0017379294
0.0014754571 -0.0043332567 -0.011691602 0.002910799 -0.0018620286 2.3696715e-05 0.005204227 -0.007498117
-0.007509247 -0.008880293 -0.0029639886 -0.00089673157 -0.0069428305 0.0020348644 -0.012218132 -0.008009752
0.0075376485 -0.00949837 -0.008485145 0.0033907597 0.0026503957 -0.00019855767 0.0019999233 -0.010162549
-0.009380121 0.0049660327 0.0008607529 0.0057739737 0.0008160852 0.008021781 -0.003353794 0.004478999
0.001673411 -0.0030631968 -0.0051418357 -0.0006467779 -0.0013969428 -0.0028575268 0.0015300122 -0.00045418766
0.0009472777 -0.005441001 -0.006452486 0.0010583685 -0.0045907325 0.0025337946 0.0038129704 -0.015171492
0.008449009 0.004770854 0.0007315374 -0.0027887071 0.0071537388 0.0072216457 -0.005460094 0.0036289236
0.001538083 -0.0021302667 0.0038858515 0.0031507448 0.001290225 -0.00074269535 -0.005908593 0.00484439
-0.008690427 0.002514395 -0.0015944825 -0.006219942 0.0031474936 0.010883776 -0.0092221815 0.00029919008
0.009880359 -0.0014301613 -0.0031111387 0.00398663 -0.004227415 -0.0032666342 0.0005064603 0.0003573162
-0.008260214 -0.0049344995 0.0076203845 -0.007938988 -0.009074014 0.0086864075 -0.0028139295 0.0072536045
0.00047822244 -0.0111438865 -0.00017150145 -0.0098161455 0.0072170966 0.002260134 -0.0012807916 -0.0057169693
0.007054735 0.0026606256 0.00089196983 0.011774254 0.0008933011 0.0028921415 0.0043247337 0.0067028347
0.0063253744 -0.0060961978 0.00032684073 -0.0022575748 0.0037433926 0.009910966 0.010692929 -0.0026836528
0.013426132 0.009982475 0.007640161 -0.004471037 0.001053709 0.00847289 0.0068510864 -0.00197855

user_tower.network.1.running_mean f4 [256]
00000000: b7d8 023d 0faf 37bc 2604 c13c 5de5 3bbb
00000010: f25b 913d d9e1 22bd f04c 8dbd d6d7 a63c
00000020: d631 1ebd fa38 463b 5dec 9e3c 1a3a 19bd
00000030: 4b4a 1b3b 5f77 ac3c 117c 0f3d 8295 1f3d
00000040: 23e6 923c ab80 12bd 7ea6 95bd d83d 03bc
00000050: 4481 ae3c 2d09 03bd 19ed 113d 7add e0bb
00000060: b161 1fbd 48bb 72bc 953b 0b3e b434 04bc
00000070: adbc b0bd 828d afbc 56a8 12bd 6264 d23d
00000080: c962 e03c 5c74 3cbd 228d f1bd 97b0 6bbd
00000090: 5c8c 083c 537c 43bc 0088 803d 6713 69bd
000000a0: b862 a0bc cb44 873d 57a3 923c 75bd 593d
000000b0: 79af 40bd 7240 5bbd 2eee 3c3d ab1f e1bc
000000c0: 3000 cfbc a748 003d 8a73 c2bc 1c76 cd3c
000000d0: 1227 6f3c 9bd6 9dbc 10ef e73c 04f2 903d
000000e0: e3c8 a5bc 00f0 923d c2ea 5cbd be8f 5bbc
000000f0: 1dae 963d 0b05 b23d e4b1 8c3d 8da7 c0bc
00000100: 55de 15bd 7442 083d b812 443d 752c fa3b
00000110: fdf0 f73d ccba a63d 6562 8b3b 1714 9f3d
00000120: f48b c5bd 27cd b73d 3ab3 023c 84b9 e4bc
00000130: a184 393d afd5 4e3d db5f 5abc e6fe 58bd
00000140: ab3c a0bc 03c2 3dbd 1cc8 173c d1c4 05be
00000150: fc5c ef3d 79e2 2dbd 962f 0e3c 0d58 663d
00000160: 34db 943d a94a 103d 644b 6fbc 603b 063d
00000170: 8ef0 29bd 2d0a 8e3d d94e 3cbc 4680 233d
00000180: e760 8e3d cf90 c3bb 4264 1ebd 1d73 c73d
00000190: bd9c 6d3d 7622 783d c76a 8cbd ff73 e5bc
000001a0: 5b50 6abd c45c 2fbc 2c3d 853d fc05 183c
000001b0: b9c6 5dbd 0226 26bd a108 51bd e091 47bc
000001c0: ac51 6d3c 692a c8bc cfa4 3ebd 5b0d abbb
000001d0: dc57 66bd 9348 a4bd f20e c43c 9fa1 963c
000001e0: 2ab3 883d ff42 cc3c 57a8 9cbd 9611 13bd
000001f0: 8a5f 9e3d c8b8 5ebc 0300 fd39 9e7d 80bd
00000200: 17ee c93d ae2a 6e3d 9bfd c4bc 81bb 593d
00000210: b35e 8dbd 280e 983d 976a 603d 248a 703c
00000220: 61ee 86bd e4b8 86bc 0ac1 91bb 1c61 2cbd
00000230: 8644 25bd 3746 0abd d6bb b7bc a1c3 733d
00000240: 5117 ebbc 1fcc 333d 67ec 37bb b2fd 3bbd
00000250: 8f2f fabb b575 84bb cf1c 6d3d 961e 043d
00000260: a9d3 b83b adb4 9f3c 951c fbbc 5d5a 093d
00000270: 19ed bc3c 9772 9d3d eb79 ae3c 9a18 f73b
00000280: 6a7e 843b 3d8a 8e3d 1f3e bc3c 62cc 7abd
00000290: 731c 97bd 0a7e fc3c 6428 163d cb78 1b3d
000002a0: 0a47 f5bc ac0e 133d 3d69 5b3d defd 953d
000002b0: 761f 623d 359f 0f3e bab1 e03c a71d acbd
000002c0: b855 02bd 2353 82bc 0e80 833c d826 b73c
000002d0: e087 313d eac8 edbc fedb 613d 9a6b c03d
000002e0: 2eb8 07bb fcd7 3abc 73de 743b b270 2bbc
000002f0: cd8c 7439 52ed 06bd 1a97 15bd 233f 0c3d
00000300: b86b 4abd 6b29 36bd 5b82 503d cc47 ca3d
00000310: c51d a03c 1699 30bd 4ef1 aebd baae 453b
00000320: e942 d63c 179e cf3c 1a28 19bd d414 4bbc
00000330: d5c9 80bd 938f 7e3d fb04 24bd f131 ff3c
00000340: c556 8f3d 803b 073a c90a 04bc bf75 27bd
00000350: 5e2b e4bb 4576 bd3d b3f9 c0bc af3a 0e3e
00000360: e9c4 e8bc 33ab 323d 2c86 f7bb d896 54bc
00000370: ab40 9dbd 0699 8fbb 6902 453d c1a5 a1bd
00000380: 5cac 203d 2639 54bc b520 a63c a2d5 aabd
00000390: 4fe0 7b3d ab76 1b3d 4bc9 16bd fe19 87b9
000003a0: 361f 8c3b d0cc 0f3c bf7d 3abd 707e c33d
000003b0: 86c9 c33d 5480 23bb b4f5 7ebc 8465 b5bb
000003c0: 3a61 e83c b248 9b3d 7700 34bd a0b9 f7bd
000003d0: 1ed8 503c e9d5 8c3c 07fa 703d 496d 9abd
000003e0: 21f2 6d3d 8621 113d ae7c 9bbd 284b 8d3d
000003f0: 72fe a0bc 64ab 95bd b5c9 d8bb 851a afbc
0.031944957 -0.011211171 0.023561548 -0.0028670647 0.07097615 -0.039766166 -0.0689944 0.02036659
-0.038621746 0.0030246363 0.019399816 -0.037408926 0.0023695405 0.021053014 0.03503043 0.03896094
0.017932003 -0.03576724 -0.073071465 -0.00801035 0.021301873 -0.031991173 0.035626505 -0.0068623396
-0.038911525 -0.014815159 0.13596947 -0.008069206 -0.08629737 -0.02142978 -0.03580507 0.10273053
0.027390854 -0.046009406 -0.11794497 -0.057541456 0.0083342455 -0.011931497 0.0627594 -0.05690327
-0.019578323 0.06604918 0.017900152 0.053159196 -0.047042344 -0.053528257 0.046125583 -0.02748092
-0.025268644 0.031319287 -0.023736734 0.025080733 0.014596717 -0.01926737 0.028312236 0.07077411
-0.020237392 0.071746826 -0.05393482 -0.01340097 0.07357428 0.08692368 0.068698674 -0.023517394
-0.036588985 0.0332665 0.047869414 0.007634694 0.12106512 0.081410974 0.004253673 0.07767504
-0.096458346 0.089746766 0.007977301 -0.027920492 0.0452925 0.050496753 -0.013328518 -0.052977465
-0.019560179 -0.046327602 0.009264018 -0.13063361 0.11687657 -0.04245231 0.008678338 0.056236316
0.07268372 0.03522745 -0.014605377 0.03277147 -0.041489176 0.069355346 -0.011493408 0.039917253
0.069520764 -0.0059681903 -0.038669832 0.09738753 0.058010805 0.06057974 -0.06856304 -0.028009413
-0.05720554 -0.010703269 0.06505808 0.009278771 -0.054144595 -0.04056359 -0.05103362 -0.012180775
0.014484804 -0.024434285 -0.046543892 -0.005220098 -0.056236133 -0.08021655 0.023932908 0.018387614
0.06674798 0.02493429 -0.07649296 -0.035905443 0.077330664 -0.01359386 0.0004825593 -0.062739596
0.09859865 0.05814617 -0.02404671 0.053157333 -0.06902828 0.07424575 0.054789152 0.014681373
-0.06588436 -0.016445585 -0.004448061 -0.0420848 -0.040348552 -0.03375837 -0.022428434 0.05951274
-0.028697642 0.043895837 -0.002806449 -0.04589624 -0.007635064 -0.004042352 0.057888802 0.03225573
0.005640466 0.019495333 -0.030653277 0.033533443 0.023062276 0.07687872 0.02129837 0.0075407745
0.00404339 0.069599606 0.02297884 -0.06123007 -0.07378473 0.030821819 0.036659613 0.037956994
-0.0299411 0.035902664 0.05356716 0.07323812 0.055205785 0.14025576 0.027428497 -0.08404093
-0.03182003 -0.015908783 0.016052272 0.02235739 0.04334247 -0.029026467 0.05514144 0.09395523
-0.0020709145 -0.011404034 0.0037364035 -0.01046388 0.00023322106 -0.03294117 -0.036521055 0.0342399
-0.049419135 -0.044473093 0.050905567 0.098769754 0.019545445 -0.043114744 -0.08542119 0.003016396
0.026154952 0.025343938 -0.03739176 -0.0123951025 -0.062884964 0.06214864 -0.040043812 0.031151744
0.06998972 0.00051587075 -0.008059212 -0.040883776 -0.0069631776 0.09251074 -0.023556566 0.13889574
-0.028414207 0.0436203 -0.0075538363 -0.012975417 -0.0767835 -0.0043822555 0.048098 -0.07892943
0.039226875 -0.012953078 0.020279268 -0.083415285 0.061493214 0.037954967 -0.03681306 -0.00025768572
0.0042761816 0.008776858 -0.045530077 0.095456004 0.09559922 -0.0024948316 -0.01556151 -0.0055357832
0.028366674 0.07582225 -0.043945756 -0.12095952 0.012746839 0.017191844 0.058832195 -0.07540376
0.05809224 0.03543236 -0.0759214 0.068991005 -0.019652579 -0.07308081 -0.006615842 -0.02137495

user_tower.network.1.running_var f4 [256]
00000000: 73b0 a93b 341f aa3b 84dc a93b 9e47 ab3b
00000010: 4755 aa3b ffb1 aa3b f90b ab3b 4c71 a93b
00000020: fa8d a93b bc26 aa3b 674f a93b cdc2 aa3b
00000030: 4c16 aa3b 7a7b a93b f825 aa3b 63d0 aa3b
00000040: 7d83 aa3b 7126 ab3b 1f94 ab3b 7da5 aa3b
00000050: c910 aa3b 1248 aa3b 2701 ab3b 2d0e aa3b
00000060: 105d aa3b 103c aa3b e80a aa3b 02e8 aa3b
00000070: 474c aa3b b5dc aa3b 8f24 aa3b 4d2a aa3b
00000080: 5992 a93b d025 aa3b f677 aa3b a369 aa3b
00000090: ed84 aa3b df41 ab3b 205e aa3b 0dc5 a93b
000000a0: ebbe a93b 53e2 a93b 10d1 a93b 737b aa3b
000000b0: 85c8 a93b 6bc2 aa3b 1ca5 aa3b cde0 aa3b
000000c0: b182 a93b 41af aa3b 46e5 a93b d58e a93b
000000d0: 54d1 aa3b bd33 aa3b 0aa7 a93b 9981 aa3b
000000e0: 3c3a aa3b e743 aa3b 996a ab3b 77bb a93b
000000f0: 939e a93b 8c05 aa3b a0d5 a93b 02c0 aa3b
00000100: 10f7 aa3b a864 aa3b d6e0 a93b 1e45 aa3b
00000110: 2fac a93b 5429 aa3b 1e8b a93b 6cd8 a93b
00000120: cd25 aa3b 9410 aa3b 4ea8 a93b af30 a93b
00000130: e484 aa3b 6da7 a93b 5f0e aa3b 81d0 a93b
00000140: 0637 ab3b dde2 a93b af22 aa3b dde6 a93b
00000150: bc25 aa3b 5d0c aa3b 5d0e aa3b 5127 aa3b
00000160: fb08 aa3b 54ae aa3b 4549 aa3b 93c8 a93b
00000170: ddfb a93b 6e38 ab3b 32ce a93b 1477 aa3b
00000180: febc a93b c297 aa3b 8257 aa3b 18a1 a93b
00000190: 6e3b aa3b e0ab a93b 2444 aa3b f81a ab3b
000001a0: 91ef a93b 91d2 a93b 5bb9 aa3b ac7f aa3b
000001b0: c445 aa3b 2a2a ab3b b45e aa3b 3244 a93b
000001c0: 1498 aa3b 9378 ab3b d8a8 a93b 3201 aa3b
000001d0: 1a67 a93b 5ad5 a93b 33ac ab3b 9ca7 a93b
000001e0: 5988 aa3b 25a7 a93b 3115 aa3b 17d9 a93b
000001f0: f3a7 a93b 87a3 aa3b 77af aa3b 7066 aa3b
00000200: d86d aa3b 2ef8 a93b d6d2 a93b 762a aa3b
00000210: fdc4 a93b 15d5 aa3b 75f2 a93b 2791 ab3b
00000220: 5ec7 a93b d788 a93b 3b35 aa3b de0c aa3b
00000230: c344 ab3b 2192 aa3b f6da a93b ad6d a93b
00000240: 3183 a93b 4d96 a93b 7aba a93b 5ef7 aa3b
00000250: cd2f aa3b ee79 aa3b 829c a93b 5e80 aa3b
00000260: 1783 ab3b 0dd5 aa3b fc06 aa3b fd57 aa3b
00000270: ae29 aa3b 04da a93b a4b2 aa3b 4206 aa3b
00000280: eaa0 a93b 3e63 aa3b 0232 aa3b 8494 aa3b
00000290: ddc0 a93b 17ce aa3b 5c8c a93b 998a aa3b
000002a0: 7ae5 aa3b 91b9 a93b c2b8 a93b 6a4c aa3b
000002b0: 4f1a aa3b de94 a93b 4dc3 aa3b 28cf aa3b
000002c0: 6909 ab3b 5188 a93b a9bb a93b f9c3 a93b
000002d0: 96d6 a93b ca8e aa3b 02f0 a93b 1664 aa3b
000002e0: e7c7 a93b 3edb a93b 3118 aa3b 5cd7 a93b
000002f0: fc9b a93b c7ca aa3b 0c38 ab3b 2fc9 a93b
00000300: bfb4 aa3b 4316 ab3b 76b7 aa3b cabb a93b
00000310: 569a aa3b 50b3 a93b e528 aa3b f67b aa3b
00000320: 2ecb a93b c6ff a93b 2e97 aa3b dfbc a93b
00000330: 2741 a93b 41c3 a93b dd83 a93b f7f0 aa3b
00000340: 4c24 ab3b 323f ab3b 703e aa3b e049 aa3b
00000350: c08e a93b 347f a93b b365 aa3b 4c84 a93b
00000360: 5524 aa3b 50ff a93b a6aa aa3b 9c63 a93b
00000370: 7c0a aa3b b09b a93b dc7b aa3b d168 aa3b
00000380: 0977 aa3b eb62 aa3b 76eb a93b 4f69 a93b
00000390: 80d4 aa3b aef6 a93b 5af2 a93b 19d4 a93b
000003a0: 6186 aa3b 954d ab3b 8be7 a93b 9521 aa3b
000003b0: 0a58 aa3b b438 aa3b 5537 ab3b 932a aa3b
000003c0: fdd0 a93b 6793 aa3b 9c0f aa3b 56d2 a93b
000003d0: 10d6 a93b e73e aa3b 8015 ab3b 30ad a93b
000003e0: 28a0 a93b 89ab aa3b 6506 aa3b 6bd8 a93b
000003f0: 1869 aa3b eef9 a93b d66c aa3b e0e9 a93b
0.005178505 0.005191708 0.005183758 0.0052270433 0.005198154 0.005209207 0.005219933 0.0051709767
0.0051743956 0.005192606 0.005166936 0.0052112103 0.0051906463 0.0051721903 0.0051925145 0.00521283
0.005203663 0.0052230884 0.0052361633 0.005207716 0.005189989 0.0051965797 0.005218643 0.005189678
0.005199082 0.0051951483 0.0051892884 0.005215646 0.0051970812 0.0052142986 0.0051923464 0.005193031
0.0051749167 0.005192496 0.0052022887 0.005200581 0.0052038343 0.0052263583 0.005199209 0.005180961
0.00518023 0.0051844507 0.005182393 0.0052027046 0.0051813745 0.0052111647 0.005207671 0.0052147866
0.0051730503 0.00520888 0.005184802 0.0051744976 0.005212942 0.005194156 0.0051773833 0.0052034375
0.0051949304 0.005196083 0.0052312133 0.0051798183 0.005176374 0.0051886495 0.005182937 0.0052108774
0.0052174404 0.0051999874 0.0051842732 0.0051962277 0.0051779966 0.005192915 0.0051740548 0.00518327
0.0051924945 0.0051899645 0.005177534 0.0051632742 0.00520383 0.0051774294 0.0051897014 0.0051823263
0.005225065 0.005184515 0.005192123 0.0051849918 0.0051924866 0.005189462 0.0051897005 0.005192675
0.005189059 0.00520877 0.0051967227 0.005181381 0.005187495 0.005225233 0.005182051 0.0052021835
0.0051800003 0.005206079 0.00519842 0.0051766746 0.005195073 0.00517796 0.0051961113 0.005221721
0.0051860292 0.005182572 0.0052100844 0.005203208 0.005196305 0.005223532 0.005199278 0.0051656
0.0052061174 0.0052328794 0.0051775984 0.005188131 0.0051697614 0.005182904 0.0052390336 0.0051774513
0.005204242 0.005177396 0.0051905145 0.00518335 0.005177492 0.0052074823 0.0052089053 0.0052002
0.0052010827 0.005187056 0.0051826043 0.00519305 0.0051809535 0.0052133896 0.005186374 0.0052358094
0.005181237 0.0051737833 0.005194334 0.005189522 0.005226703 0.005205408 0.005183573 0.005170545
0.00517311 0.005175388 0.0051797004 0.0052174767 0.0051936866 0.0052025234 0.005176128 0.005203291
0.005234133 0.005213386 0.005188821 0.0051984773 0.005192957 0.00518346 0.005209284 0.0051887343
0.005176653 0.005199819 0.0051939497 0.0052056927 0.005180462 0.005212556 0.005174203 0.0052045104
0.005215344 0.005179592 0.0051794956 0.0051970975 0.0051911245 0.005175217 0.00521127 0.005212683
0.0052196276 0.005173721 0.0051798415 0.0051808325 0.0051830513 0.00520501 0.005186082 0.0051999195
0.005181301 0.0051836064 0.005190872 0.0051831435 0.0051760655 0.005212161 0.005225187 0.0051814537
0.005209535 0.0052211597 0.0052098585 0.005179857 0.0052063866 0.0051788464 0.0051928633 0.0052027656
0.0051816916 0.0051879613 0.0052060103 0.005179986 0.0051652375 0.005180747 0.00517319 0.0052167135
0.005222833 0.0052260393 0.0051954314 0.005196795 0.005174488 0.0051726345 0.005200112 0.0051732417
0.0051923194 0.0051879063 0.005208331 0.005169345 0.005189238 0.00517603 0.0052027535 0.0052004834
0.0052021784 0.00519978 0.00518554 0.0051700245 0.0052133203 0.005186877 0.0051863613 0.0051827547
0.0052040075 0.0052277544 0.005185073 0.0051919916 0.0051984834 0.005194748 0.005225102 0.0051930635
0.005182384 0.00520556 0.005189849 0.0051825447 0.005182989 0.005195487 0.005221069 0.0051781163
0.005176563 0.005208437 0.0051887506 0.0051832697 0.0052005164 0.0051872646 0.0052009625 0.005185351

user_tower.network.4.weight f4 [128, 256]
00000000: cf0e fa3c 9486 43bc bb33 c7bc 3e9b 253d
00000010: 2d0c ba3c aef8 82bd f9f9 5abd dc7e 19bd
00000020: 789d b9bc 574a 543d a3d4 13bd 807a efbc
00000030: 6d02 1a3d 3780 72bc 462f ff3c da05 613c
00000040: 1733 5bbc c7b2 3c3d 5eb4 593d aaec 1f3d
00000050: 8e44 66bd c93d e2bc e1c6 ad3c a057 7fbd
00000060: 4546 e13c e959 54bd 989d d2bc aa49 16bc
00000070: 03c6 bfbb 00cb 26bd da3a 883b 7448 0d3d
00000080: 62f6 3cbd dd2f 273c 8c2c 2cbc ecdb edbc
00000090: d1e6 04bd 6297 fe3b ea03 abbc 8f37 803c
000000a0: b3fa 83bd de09 503d 68d5 95bc 85fe 49bb
000000b0: 7254 7ebd 489b 773d 2e39 4d3d cfd0 6c3d
000000c0: 7bd2 e13c 6cc6 253c f680 303d 12e5 573c
000000d0: d734 743d a278 5eba a533 a13b 08fd 0ebc
000000e0: c8ad 143d 3bb8 873c 5e76 483d 1d79 29bd
000000f0: 5a89 40bd 3952 08bd 31aa ce3a d3c6 e53b
00000100: 4d93 603b d862 6bbc e557 8abc 336a 353b
00000110: b63b a03b 3fbb 29b9 dcea ccbc 9145 0bbd
00000120: 10b7 b1bc 077b 70bd 5290 c53b 2771 fa3c
00000130: 173c 4abd 7149 d63c b012 5dbd 7ecc 88bd
00000140: 87a4 783c dbe1 5fbd bd27 fb3c 5ca2 c2bc
00000150: c6ac 5c3c a723 99bd e636 4b3d afca 83bd
00000160: 72c6 813d c431 33bd 1cef 333c 5b1c 4e3c
00000170: 6062 92bc ab9b 463d 923e 5e3c 99f7 893c
00000180: 747d acbc 7724 a53c 0733 88bb cc6d 453d
00000190: 15d2 b4bc 413b e0bc 13aa c8bc 5f8c 88bd
000001a0: 24e5 80bd 9f76 2d3d 4022 48bd 04ad 38bd
000001b0: 9c4d f4bb 8377 28bd ed26 43bc ffed 8d3c
000001c0: 1bfc 2a3d 7bd4 2e3c dbd1 3ebb 08e1 223c
000001d0: dd76 9c3c c7c5 4e3c b6d8 7d3c 57e1 083b
000001e0: c2fe c03b d990 073c cb14 ce3c 250c 813d
000001f0: 5ba3 013d 010e 143d 78ce 553c 722e 723d
00000200: 7032 ce3c a5d2 2cbd 3aaa 3abd d79f cabb
00000210: d916 1cbd 1f94 3fbd c0a3 103d b6ac 3dbd
00000220: 248a 3abd 1755 9abc 1b91 5fbd 21d0 633b
00000230: 4023 883d 650b 863b 69ba 253d bc15 4dba
00000240: aea5 033d 5a9f 1b3d d2e6 3cbb 3c2d 4dbd
00000250: 6fb3 253d f51e 233d 7351 abbb 0fb0 44bd
00000260: 3847 793d aaed 643b fd29 38bd 2bd8 33bd
00000270: c541 6b3d 88a9 99ba 59a7 0e3d dadd 7f3d
00000280: e625 113d 3f6c c33c b3fb 33bd f9a1 64bd
00000290: 8f55 0abc 1ff4 5fbd f7a1 75bd f25b 92bc
000002a0: 2f4c 803c 32cc 44bb 424d 3cbd 3fa6 3f3d
000002b0: 0a76 53bd 6cec 56bd aa60 793d 89c8 aa3c
000002c0: 2359 d83c 7cce 45bd fea1 6b3d 9d27 0d3c
000002d0: 12f4 5bbd c1ff d2bc 0e8f e1bc a524 3c3d
000002e0: 4482 d1bc ec75 143d 56a0 7dbd e2ff 1abc
000002f0: 44b7 95bc 065d 75bd 2cc1 633d 7db3 833c
00000300: d9e1 7dbd 9e74 5bbd 243b 48bd 980e 423c
00000310: fd12 f8bc a165 5ebd 009a 42bd 3898 d1bc
00000320: 59da 8abb 6336 0d3d 6a3b 013d 5afd 083d
00000330: fcc3 403d 2964 fe3c 6c6c b2bc b463 113d
00000340: efe8 b0bc 58da be3b e946 4c3d bb82 333d
00000350: 0db3 b5bc 5e88 29bd ff30 44bd 5ab8 6dbd
00000360: 3118 18bd c874 3d3d fab6 c5bc 3bea 49bc
00000370: 6bca 80bb 705e fbbb 9977 e2bb d1da e4bc
00000380: 2fb1 da3c 4b02 94bb eab7 2dbd f24a 7d3d
00000390: 0201 d4bc 8bb9 0dbc 6c59 6ebd 4941 4bbd
000003a0: 040e 54bd be29 9e3c 764e 1a3d 519e 14bd
000003b0: 60b5 d53c a639 583d f299 47bc 5eef 21bd
000003c0: 71ff 593d 2ea6 773d ab98 8abc f3ad 7f3c
000003d0: 6883 14bd 228f 5fbd eb3a 89bc e510 dc3c
000003e0: 82ba e83c 5ad1 c23c b513 ec3c af2f 6ebd
000003f0: 9a30 d2bc 42e8 5b3d 1ff0 4a3d ea71 aabc
0.03052464 -0.011933941 -0.02431666 0.040431254 0.022710884 -0.06395088 -0.05346105 -0.0374745
-0.022658095 0.05182871 -0.036091458 -0.029233217 0.03759997 -0.014801077 0.031150471 0.013734305
-0.01337888 0.046068933 0.053150527 0.03904406 -0.056217723 -0.027617352 0.021212997 -0.062339425
0.027499327 -0.051843558 -0.025709912 -0.009172836 -0.0058524623 -0.04072094 0.0041574063 0.034492925
-0.046133406 0.010204283 -0.010508668 -0.029035531 -0.032446686 0.007769511 -0.02087589 0.015651492
-0.064443015 0.05079066 -0.018290237 -0.0030821871 -0.062092252 0.060450822 0.05010336 0.057816323
0.027566185 0.010118108 0.043091737 0.013177173 0.059620705 -0.00084866036 0.0049194866 -0.00872732
0.036298543 0.01656734 0.04894101 -0.04137527 -0.04700599 -0.03328154 0.0015767274 0.007012227
0.0034267486 -0.014366828 -0.016887615 0.0027681708 0.0048899306 -0.0001618685 -0.025014333 -0.03400189
-0.021693736 -0.058711078 0.006029167 0.030571533 -0.049373712 0.026158066 -0.0539729 -0.06679629
0.015175945 -0.054658752 0.030658597 -0.02375906 0.013468927 -0.07477503 0.049612902 -0.06435143
0.063366786 -0.043748632 0.010982301 0.012580003 -0.017869174 0.0484883 0.013564723 0.016841697
-0.021055914 0.02015899 -0.0041564736 0.048200414 -0.022072831 -0.027372004 -0.02449516 -0.06667399
-0.06293705 0.042349454 -0.04886079 -0.045086876 -0.007455541 -0.0411296 -0.011911136 0.0173254
0.041744333 0.0106707765 -0.0029116783 0.009941347 0.019099647 0.012620396 0.015493562 0.0020886266
0.0058897445 0.0082742805 0.0251564 0.063011445 0.03164993 0.036146168 0.013049714 0.059126325
0.025170535 -0.042193074 -0.045572497 -0.006183605 -0.038107727 -0.04677212 0.035312414 -0.046307288
-0.045541897 -0.018839402 -0.054581743 0.0034761506 0.066473484 0.004090714 0.040460978 -0.0007823368
0.032140426 0.037993766 -0.0028824103 -0.050091967 0.040454324 0.039824445 -0.0052282154 -0.048019465
0.060858935 0.0034931698 -0.04496192 -0.043907326 0.05743577 -0.0011723498 0.034827564 0.062467434
0.035436533 0.023855327 -0.04394121 -0.05581853 -0.00844325 -0.05467617 -0.059968915 -0.017866109
0.015661327 -0.0030028936 -0.045972116 0.046789404 -0.051626243 -0.052471563 0.0608832 0.020847576
0.026409691 -0.048292622 0.057527535 0.008615402 -0.05369956 -0.025756719 -0.027534034 0.045933384
-0.02557481 0.03624527 -0.061920486 -0.009460421 -0.018275864 -0.059903167 0.055604145 0.016076798
-0.061982963 -0.05357801 -0.048884526 0.0118443 -0.030282492 -0.05429614 -0.047510147 -0.025585279
-0.004237455 0.034475695 0.031550802 0.03344474 0.047061905 0.03105362 -0.021780215 0.035495475
-0.021595446 0.0058243684 0.049872313 0.043825846 -0.022180105 -0.041389816 -0.04789829 -0.05803714
-0.037132446 0.04625395 -0.024135102 -0.012323911 -0.00393038 -0.00767117 -0.00691123 -0.027936371
0.026695816 -0.004516875 -0.042411722 0.06183905 -0.025879387 -0.008650194 -0.058190748 -0.049622808
-0.05177118 0.019307014 0.037672482 -0.036283795 0.026087463 0.052789353 -0.0121826995 -0.03953492
0.053222124 0.060461216 -0.0169185 0.015605438 -0.03625813 -0.05457986 -0.016751727 0.026863525
0.028409246 0.023781467 0.02881799 -0.058150943 -0.02565794 0.053688295 0.049545404 -0.020806272

user_tower.network.4.bias f4 [128]
00000000: ecb9 083d baaa 5e3d f873 15bd f4fb 67bd
00000010: 389f 2e3d 3167 e7bc 84a7 76bc 9537 29bb
00000020: 70c4 ddbc dc74 74bd 095e a8ba 43aa 15bd
00000030: 8552 68bd 37c6 0c3d 7cbe 5f3d b139 8c3b
00000040: 98ab 13bd 187b c4bc f6ab d03c 85c2 34bd
00000050: 90dd 2bbd b0fc a83c 9cac 2bbd d789 6abd
00000060: 1432 cfbc ac6a 03bd 389b b8bb 9d9b 76bb
00000070: 83a8 713d 0411 afbc dab5 6f3c 7432 f03c
00000080: 6aa5 9e3c 34fc 543d 8dad 983c c1c6 cb3a
00000090: c1f4 9cbc 22f4 863b 3aee a43c 1c74 b4bb
000000a0: 75d5 93bc 4681 1fbd 8a4b 52bd 9f97 ddbc
000000b0: 9fd4 023c 1e19 03bd ed4f b939 8f37 b93c
000000c0: 271d 98bc 8e54 77bd 8097 9e3c 6154 7b3d
000000d0: 3ffb 6dbd f947 43bd 2a64 82bd 8d16 3cbd
000000e0: 7d85 35bd 4a5f 973b 45ac 7d3d 2ec4 5d3d
000000f0: 89d5 4e3c feef 64ba f307 febc 3e68 193d
00000100: d160 44bb de79 013d 6113 b9bc 22fc 93ba
00000110: 1363 c3bc bdbd 18bd cd49 e53b 2a9b 653d
00000120: eaa1 463d 6234 c9ba b059 313d 6e3c 26bc
00000130: 755a b2bb 9695 30bd d3d1 1cbc 43ef c8bc
00000140: 3993 6ebd 2cb1 69bd 5987 273d 3d1b 733d
00000150: 77fd 1dbc 85b0 d4bc a217 e1bb 8e8d e53c
00000160: 5600 1dbd 010d 78bc 11fa 18bd 1625 2cbd
00000170: 00ab 51bc 7949 a53c edba a93c f099 43bc
00000180: d118 5cbd 5f8b bb3c ec69 1bbd 12f1 72bd
00000190: 2a5d 4cbc 3500 b33c eb01 fcbc c11a 0d3d
000001a0: 0e78 3fbd 14b7 073d fdde d53c fa2a 6ebd
000001b0: a311 593d 272f c83c 2c96 01bd ee93 16bd
000001c0: f2dc 3dbd 3352 3c3c c07b cabc f240 d1bc
000001d0: 8c36 a33c 0123 3c3d bd7a cd3b b073 143c
000001e0: 35ba 323d 8859 393c 6d4e 78bd b860 c4bc
000001f0: 65e6 8c3c 3f0f 223d 21be 9e3c 7753 523d
0.033380434 0.054362036 -0.03648755 -0.056636766 0.04263231 -0.028247448 -0.015054587 -0.0025820483
-0.027071208 -0.05968176 -0.0012845407 -0.036539327 -0.05671932 0.03436872 0.05462502 0.0042793383
-0.036052316 -0.023984477 0.025472622 -0.04413082 -0.041959345 0.020628303 -0.04191266 -0.05726036
-0.025292434 -0.032084152 -0.005633738 -0.0037629374 0.058998596 -0.021370418 0.014630759 0.029320933
0.019365985 0.051998332 0.018637443 0.0015546904 -0.019159677 0.0041184584 0.020133127 -0.0055070054
-0.01804612 -0.038941644 -0.05134157 -0.027049838 0.007985263 -0.032006375 0.000353455 0.0226095
-0.018568588 -0.060383372 0.01935935 0.061359767 -0.058100935 -0.04767606 -0.06366761 -0.045919944
-0.044316757 0.0046195136 0.061931867 0.05414217 0.012624153 -0.00087332714 -0.03100965 0.03745293
-0.0029964934 0.031610362 -0.022592248 -0.0011290351 -0.023850953 -0.037290324 0.006997323 0.05605618
0.048494257 -0.0015350694 0.043298423 -0.0101462435 -0.005442912 -0.043111406 -0.00957151 -0.024528151
-0.05824587 -0.05705373 0.040900562 0.05935215 -0.00964295 -0.025963077 -0.0068692723 0.0280216
-0.0383304 -0.015139819 -0.037347857 -0.042027555 -0.012797117 0.020176636 0.020719016 -0.011938557
-0.053734604 0.022893606 -0.03794281 -0.059311934 -0.012473384 0.021850685 -0.030762633 0.034449343
-0.046745352 0.03313358 0.026107306 -0.058146454 0.052995335 0.024436546 -0.031637356 -0.03676217
-0.046353288 0.011494207 -0.024717212 -0.025543664 0.01992347 0.04593182 0.006270735 0.009060785
0.043634612 0.01131285 -0.060621668 -0.0239719 0.017199704 0.03956532 0.01937777 0.05134913
